<?xml version="1.0"?>
<net name="onnx_Frontend_IR" version="11">
	<layers>
		<layer id="0" name="input" type="Parameter" version="opset1">
			<data shape="1,7" element_type="f32" />
			<output>
				<port id="0" precision="FP32" names="input">
					<dim>1</dim>
					<dim>7</dim>
				</port>
			</output>
		</layer>
		<layer id="1" name="_operators.0.values_compressed" type="Const" version="opset1">
			<data element_type="f16" shape="3100, 3" offset="0" size="18600" />
			<output>
				<port id="0" precision="FP16" names="_operators.0.values">
					<dim>3100</dim>
					<dim>3</dim>
				</port>
			</output>
		</layer>
		<layer id="2" name="_operators.0.values" type="Convert" version="opset1">
			<data destination_type="f32" />
			<rt_info>
				<attribute name="decompression" version="0" />
			</rt_info>
			<input>
				<port id="0" precision="FP16">
					<dim>3100</dim>
					<dim>3</dim>
				</port>
			</input>
			<output>
				<port id="1" precision="FP32">
					<dim>3100</dim>
					<dim>3</dim>
				</port>
			</output>
		</layer>
		<layer id="3" name="_operators.0.features" type="Const" version="opset1">
			<data element_type="i64" shape="3100" offset="18600" size="24800" />
			<output>
				<port id="0" precision="I64" names="_operators.0.features">
					<dim>3100</dim>
				</port>
			</output>
		</layer>
		<layer id="4" name="/_operators.0/Reshape_1" type="Const" version="opset1">
			<data element_type="i64" shape="1, 100" offset="43400" size="800" />
			<output>
				<port id="0" precision="I64" names="/_operators.0/Reshape_1_output_0">
					<dim>1</dim>
					<dim>100</dim>
				</port>
			</output>
		</layer>
		<layer id="5" name="/_operators.0/GatherElements" type="GatherElements" version="opset6">
			<data axis="1" />
			<input>
				<port id="0" precision="FP32">
					<dim>1</dim>
					<dim>7</dim>
				</port>
				<port id="1" precision="I64">
					<dim>1</dim>
					<dim>100</dim>
				</port>
			</input>
			<output>
				<port id="2" precision="FP32" names="/_operators.0/GatherElements_output_0">
					<dim>1</dim>
					<dim>100</dim>
				</port>
			</output>
		</layer>
		<layer id="6" name="/_operators.0/Reshape_2_compressed" type="Const" version="opset1">
			<data element_type="f16" shape="1, 100" offset="44200" size="200" />
			<output>
				<port id="0" precision="FP16" names="/_operators.0/Reshape_2_output_0">
					<dim>1</dim>
					<dim>100</dim>
				</port>
			</output>
		</layer>
		<layer id="7" name="/_operators.0/Reshape_2" type="Convert" version="opset1">
			<data destination_type="f32" />
			<rt_info>
				<attribute name="decompression" version="0" />
			</rt_info>
			<input>
				<port id="0" precision="FP16">
					<dim>1</dim>
					<dim>100</dim>
				</port>
			</input>
			<output>
				<port id="1" precision="FP32">
					<dim>1</dim>
					<dim>100</dim>
				</port>
			</output>
		</layer>
		<layer id="8" name="/_operators.0/LessOrEqual" type="LessEqual" version="opset1">
			<data auto_broadcast="numpy" />
			<input>
				<port id="0" precision="FP32">
					<dim>1</dim>
					<dim>100</dim>
				</port>
				<port id="1" precision="FP32">
					<dim>1</dim>
					<dim>100</dim>
				</port>
			</input>
			<output>
				<port id="2" precision="BOOL" names="/_operators.0/LessOrEqual_output_0">
					<dim>1</dim>
					<dim>100</dim>
				</port>
			</output>
		</layer>
		<layer id="9" name="/_operators.0/Reshape_3" type="Const" version="opset1">
			<data element_type="i64" shape="1, 100" offset="44400" size="800" />
			<output>
				<port id="0" precision="I64" names="/_operators.0/Reshape_3_output_0">
					<dim>1</dim>
					<dim>100</dim>
				</port>
			</output>
		</layer>
		<layer id="10" name="/_operators.0/Reshape_4" type="Const" version="opset1">
			<data element_type="i64" shape="1, 100" offset="45200" size="800" />
			<output>
				<port id="0" precision="I64" names="/_operators.0/Reshape_4_output_0">
					<dim>1</dim>
					<dim>100</dim>
				</port>
			</output>
		</layer>
		<layer id="11" name="/_operators.0/Where_1" type="Select" version="opset1">
			<data auto_broadcast="numpy" />
			<input>
				<port id="0" precision="BOOL">
					<dim>1</dim>
					<dim>100</dim>
				</port>
				<port id="1" precision="I64">
					<dim>1</dim>
					<dim>100</dim>
				</port>
				<port id="2" precision="I64">
					<dim>1</dim>
					<dim>100</dim>
				</port>
			</input>
			<output>
				<port id="3" precision="I64" names="/_operators.0/Cast_output_0,/_operators.0/Where_1_output_0">
					<dim>1</dim>
					<dim>100</dim>
				</port>
			</output>
		</layer>
		<layer id="12" name="_operators.0.nodes_offset" type="Const" version="opset1">
			<data element_type="i64" shape="1, 100" offset="46000" size="800" />
			<output>
				<port id="0" precision="I64" names="_operators.0.nodes_offset">
					<dim>1</dim>
					<dim>100</dim>
				</port>
			</output>
		</layer>
		<layer id="13" name="/_operators.0/Add" type="Add" version="opset1">
			<data auto_broadcast="numpy" />
			<input>
				<port id="0" precision="I64">
					<dim>1</dim>
					<dim>100</dim>
				</port>
				<port id="1" precision="I64">
					<dim>1</dim>
					<dim>100</dim>
				</port>
			</input>
			<output>
				<port id="2" precision="I64" names="/_operators.0/Add_output_0">
					<dim>1</dim>
					<dim>100</dim>
				</port>
			</output>
		</layer>
		<layer id="14" name="Constant_714" type="Const" version="opset1">
			<data element_type="i64" shape="1" offset="46800" size="8" />
			<rt_info>
				<attribute name="precise" version="0" />
			</rt_info>
			<output>
				<port id="0" precision="I64">
					<dim>1</dim>
				</port>
			</output>
		</layer>
		<layer id="15" name="/_operators.0/Reshape_5" type="Reshape" version="opset1">
			<data special_zero="true" />
			<input>
				<port id="0" precision="I64">
					<dim>1</dim>
					<dim>100</dim>
				</port>
				<port id="1" precision="I64">
					<dim>1</dim>
				</port>
			</input>
			<output>
				<port id="2" precision="I64" names="/_operators.0/Reshape_5_output_0">
					<dim>100</dim>
				</port>
			</output>
		</layer>
		<layer id="16" name="Constant_47" type="Const" version="opset1">
			<data element_type="i64" shape="" offset="46808" size="8" />
			<output>
				<port id="0" precision="I64" />
			</output>
		</layer>
		<layer id="17" name="/_operators.0/Gather_4" type="Gather" version="opset8">
			<data batch_dims="0" />
			<input>
				<port id="0" precision="I64">
					<dim>3100</dim>
				</port>
				<port id="1" precision="I64">
					<dim>100</dim>
				</port>
				<port id="2" precision="I64" />
			</input>
			<output>
				<port id="3" precision="I64" names="/_operators.0/Gather_4_output_0">
					<dim>100</dim>
				</port>
			</output>
		</layer>
		<layer id="18" name="/_operators.0/Constant_9" type="Const" version="opset1">
			<data element_type="i64" shape="2" offset="46816" size="16" />
			<rt_info>
				<attribute name="precise" version="0" />
			</rt_info>
			<output>
				<port id="0" precision="I64" names="/_operators.0/Constant_9_output_0">
					<dim>2</dim>
				</port>
			</output>
		</layer>
		<layer id="19" name="/_operators.0/Reshape_6" type="Reshape" version="opset1">
			<data special_zero="true" />
			<input>
				<port id="0" precision="I64">
					<dim>100</dim>
				</port>
				<port id="1" precision="I64">
					<dim>2</dim>
				</port>
			</input>
			<output>
				<port id="2" precision="I64" names="/_operators.0/Reshape_6_output_0">
					<dim>1</dim>
					<dim>100</dim>
				</port>
			</output>
		</layer>
		<layer id="20" name="/_operators.0/GatherElements_1" type="GatherElements" version="opset6">
			<data axis="1" />
			<input>
				<port id="0" precision="FP32">
					<dim>1</dim>
					<dim>7</dim>
				</port>
				<port id="1" precision="I64">
					<dim>1</dim>
					<dim>100</dim>
				</port>
			</input>
			<output>
				<port id="2" precision="FP32" names="/_operators.0/GatherElements_1_output_0">
					<dim>1</dim>
					<dim>100</dim>
				</port>
			</output>
		</layer>
		<layer id="21" name="_operators.0.thresholds_compressed" type="Const" version="opset1">
			<data element_type="f16" shape="3100" offset="46832" size="6200" />
			<output>
				<port id="0" precision="FP16" names="_operators.0.thresholds">
					<dim>3100</dim>
				</port>
			</output>
		</layer>
		<layer id="22" name="_operators.0.thresholds" type="Convert" version="opset1">
			<data destination_type="f32" />
			<rt_info>
				<attribute name="decompression" version="0" />
			</rt_info>
			<input>
				<port id="0" precision="FP16">
					<dim>3100</dim>
				</port>
			</input>
			<output>
				<port id="1" precision="FP32">
					<dim>3100</dim>
				</port>
			</output>
		</layer>
		<layer id="23" name="Constant_52" type="Const" version="opset1">
			<data element_type="i64" shape="" offset="46808" size="8" />
			<output>
				<port id="0" precision="I64" />
			</output>
		</layer>
		<layer id="24" name="/_operators.0/Gather_5" type="Gather" version="opset8">
			<data batch_dims="0" />
			<input>
				<port id="0" precision="FP32">
					<dim>3100</dim>
				</port>
				<port id="1" precision="I64">
					<dim>100</dim>
				</port>
				<port id="2" precision="I64" />
			</input>
			<output>
				<port id="3" precision="FP32" names="/_operators.0/Gather_5_output_0">
					<dim>100</dim>
				</port>
			</output>
		</layer>
		<layer id="25" name="/_operators.0/Constant_10" type="Const" version="opset1">
			<data element_type="i64" shape="2" offset="46816" size="16" />
			<rt_info>
				<attribute name="precise" version="0" />
			</rt_info>
			<output>
				<port id="0" precision="I64" names="/_operators.0/Constant_10_output_0">
					<dim>2</dim>
				</port>
			</output>
		</layer>
		<layer id="26" name="/_operators.0/Reshape_7" type="Reshape" version="opset1">
			<data special_zero="true" />
			<input>
				<port id="0" precision="FP32">
					<dim>100</dim>
				</port>
				<port id="1" precision="I64">
					<dim>2</dim>
				</port>
			</input>
			<output>
				<port id="2" precision="FP32" names="/_operators.0/Reshape_7_output_0">
					<dim>1</dim>
					<dim>100</dim>
				</port>
			</output>
		</layer>
		<layer id="27" name="/_operators.0/LessOrEqual_1" type="LessEqual" version="opset1">
			<data auto_broadcast="numpy" />
			<input>
				<port id="0" precision="FP32">
					<dim>1</dim>
					<dim>100</dim>
				</port>
				<port id="1" precision="FP32">
					<dim>1</dim>
					<dim>100</dim>
				</port>
			</input>
			<output>
				<port id="2" precision="BOOL" names="/_operators.0/LessOrEqual_1_output_0">
					<dim>1</dim>
					<dim>100</dim>
				</port>
			</output>
		</layer>
		<layer id="28" name="_operators.0.lefts" type="Const" version="opset1">
			<data element_type="i64" shape="3100" offset="53032" size="24800" />
			<output>
				<port id="0" precision="I64" names="_operators.0.lefts">
					<dim>3100</dim>
				</port>
			</output>
		</layer>
		<layer id="29" name="Constant_56" type="Const" version="opset1">
			<data element_type="i64" shape="" offset="46808" size="8" />
			<output>
				<port id="0" precision="I64" />
			</output>
		</layer>
		<layer id="30" name="/_operators.0/Gather_6" type="Gather" version="opset8">
			<data batch_dims="0" />
			<input>
				<port id="0" precision="I64">
					<dim>3100</dim>
				</port>
				<port id="1" precision="I64">
					<dim>100</dim>
				</port>
				<port id="2" precision="I64" />
			</input>
			<output>
				<port id="3" precision="I64" names="/_operators.0/Gather_6_output_0">
					<dim>100</dim>
				</port>
			</output>
		</layer>
		<layer id="31" name="/_operators.0/Constant_11" type="Const" version="opset1">
			<data element_type="i64" shape="2" offset="46816" size="16" />
			<rt_info>
				<attribute name="precise" version="0" />
			</rt_info>
			<output>
				<port id="0" precision="I64" names="/_operators.0/Constant_11_output_0">
					<dim>2</dim>
				</port>
			</output>
		</layer>
		<layer id="32" name="/_operators.0/Reshape_8" type="Reshape" version="opset1">
			<data special_zero="true" />
			<input>
				<port id="0" precision="I64">
					<dim>100</dim>
				</port>
				<port id="1" precision="I64">
					<dim>2</dim>
				</port>
			</input>
			<output>
				<port id="2" precision="I64" names="/_operators.0/Reshape_8_output_0">
					<dim>1</dim>
					<dim>100</dim>
				</port>
			</output>
		</layer>
		<layer id="33" name="_operators.0.rights" type="Const" version="opset1">
			<data element_type="i64" shape="3100" offset="77832" size="24800" />
			<output>
				<port id="0" precision="I64" names="_operators.0.rights">
					<dim>3100</dim>
				</port>
			</output>
		</layer>
		<layer id="34" name="Constant_60" type="Const" version="opset1">
			<data element_type="i64" shape="" offset="46808" size="8" />
			<output>
				<port id="0" precision="I64" />
			</output>
		</layer>
		<layer id="35" name="/_operators.0/Gather_7" type="Gather" version="opset8">
			<data batch_dims="0" />
			<input>
				<port id="0" precision="I64">
					<dim>3100</dim>
				</port>
				<port id="1" precision="I64">
					<dim>100</dim>
				</port>
				<port id="2" precision="I64" />
			</input>
			<output>
				<port id="3" precision="I64" names="/_operators.0/Gather_7_output_0">
					<dim>100</dim>
				</port>
			</output>
		</layer>
		<layer id="36" name="/_operators.0/Constant_12" type="Const" version="opset1">
			<data element_type="i64" shape="2" offset="46816" size="16" />
			<rt_info>
				<attribute name="precise" version="0" />
			</rt_info>
			<output>
				<port id="0" precision="I64" names="/_operators.0/Constant_12_output_0">
					<dim>2</dim>
				</port>
			</output>
		</layer>
		<layer id="37" name="/_operators.0/Reshape_9" type="Reshape" version="opset1">
			<data special_zero="true" />
			<input>
				<port id="0" precision="I64">
					<dim>100</dim>
				</port>
				<port id="1" precision="I64">
					<dim>2</dim>
				</port>
			</input>
			<output>
				<port id="2" precision="I64" names="/_operators.0/Reshape_9_output_0">
					<dim>1</dim>
					<dim>100</dim>
				</port>
			</output>
		</layer>
		<layer id="38" name="/_operators.0/Where_2" type="Select" version="opset1">
			<data auto_broadcast="numpy" />
			<input>
				<port id="0" precision="BOOL">
					<dim>1</dim>
					<dim>100</dim>
				</port>
				<port id="1" precision="I64">
					<dim>1</dim>
					<dim>100</dim>
				</port>
				<port id="2" precision="I64">
					<dim>1</dim>
					<dim>100</dim>
				</port>
			</input>
			<output>
				<port id="3" precision="I64" names="/_operators.0/Cast_1_output_0,/_operators.0/Where_2_output_0">
					<dim>1</dim>
					<dim>100</dim>
				</port>
			</output>
		</layer>
		<layer id="39" name="/_operators.0/Add_1" type="Add" version="opset1">
			<data auto_broadcast="numpy" />
			<input>
				<port id="0" precision="I64">
					<dim>1</dim>
					<dim>100</dim>
				</port>
				<port id="1" precision="I64">
					<dim>1</dim>
					<dim>100</dim>
				</port>
			</input>
			<output>
				<port id="2" precision="I64" names="/_operators.0/Add_1_output_0">
					<dim>1</dim>
					<dim>100</dim>
				</port>
			</output>
		</layer>
		<layer id="40" name="Constant_715" type="Const" version="opset1">
			<data element_type="i64" shape="1" offset="46800" size="8" />
			<rt_info>
				<attribute name="precise" version="0" />
			</rt_info>
			<output>
				<port id="0" precision="I64">
					<dim>1</dim>
				</port>
			</output>
		</layer>
		<layer id="41" name="/_operators.0/Reshape_10" type="Reshape" version="opset1">
			<data special_zero="true" />
			<input>
				<port id="0" precision="I64">
					<dim>1</dim>
					<dim>100</dim>
				</port>
				<port id="1" precision="I64">
					<dim>1</dim>
				</port>
			</input>
			<output>
				<port id="2" precision="I64" names="/_operators.0/Reshape_10_output_0">
					<dim>100</dim>
				</port>
			</output>
		</layer>
		<layer id="42" name="Constant_70" type="Const" version="opset1">
			<data element_type="i64" shape="" offset="46808" size="8" />
			<output>
				<port id="0" precision="I64" />
			</output>
		</layer>
		<layer id="43" name="/_operators.0/Gather_8" type="Gather" version="opset8">
			<data batch_dims="0" />
			<input>
				<port id="0" precision="I64">
					<dim>3100</dim>
				</port>
				<port id="1" precision="I64">
					<dim>100</dim>
				</port>
				<port id="2" precision="I64" />
			</input>
			<output>
				<port id="3" precision="I64" names="/_operators.0/Gather_8_output_0">
					<dim>100</dim>
				</port>
			</output>
		</layer>
		<layer id="44" name="/_operators.0/Constant_14" type="Const" version="opset1">
			<data element_type="i64" shape="2" offset="46816" size="16" />
			<rt_info>
				<attribute name="precise" version="0" />
			</rt_info>
			<output>
				<port id="0" precision="I64" names="/_operators.0/Constant_14_output_0">
					<dim>2</dim>
				</port>
			</output>
		</layer>
		<layer id="45" name="/_operators.0/Reshape_11" type="Reshape" version="opset1">
			<data special_zero="true" />
			<input>
				<port id="0" precision="I64">
					<dim>100</dim>
				</port>
				<port id="1" precision="I64">
					<dim>2</dim>
				</port>
			</input>
			<output>
				<port id="2" precision="I64" names="/_operators.0/Reshape_11_output_0">
					<dim>1</dim>
					<dim>100</dim>
				</port>
			</output>
		</layer>
		<layer id="46" name="/_operators.0/GatherElements_2" type="GatherElements" version="opset6">
			<data axis="1" />
			<input>
				<port id="0" precision="FP32">
					<dim>1</dim>
					<dim>7</dim>
				</port>
				<port id="1" precision="I64">
					<dim>1</dim>
					<dim>100</dim>
				</port>
			</input>
			<output>
				<port id="2" precision="FP32" names="/_operators.0/GatherElements_2_output_0">
					<dim>1</dim>
					<dim>100</dim>
				</port>
			</output>
		</layer>
		<layer id="47" name="Constant_75" type="Const" version="opset1">
			<data element_type="i64" shape="" offset="46808" size="8" />
			<output>
				<port id="0" precision="I64" />
			</output>
		</layer>
		<layer id="48" name="/_operators.0/Gather_9" type="Gather" version="opset8">
			<data batch_dims="0" />
			<input>
				<port id="0" precision="FP32">
					<dim>3100</dim>
				</port>
				<port id="1" precision="I64">
					<dim>100</dim>
				</port>
				<port id="2" precision="I64" />
			</input>
			<output>
				<port id="3" precision="FP32" names="/_operators.0/Gather_9_output_0">
					<dim>100</dim>
				</port>
			</output>
		</layer>
		<layer id="49" name="/_operators.0/Constant_15" type="Const" version="opset1">
			<data element_type="i64" shape="2" offset="46816" size="16" />
			<rt_info>
				<attribute name="precise" version="0" />
			</rt_info>
			<output>
				<port id="0" precision="I64" names="/_operators.0/Constant_15_output_0">
					<dim>2</dim>
				</port>
			</output>
		</layer>
		<layer id="50" name="/_operators.0/Reshape_12" type="Reshape" version="opset1">
			<data special_zero="true" />
			<input>
				<port id="0" precision="FP32">
					<dim>100</dim>
				</port>
				<port id="1" precision="I64">
					<dim>2</dim>
				</port>
			</input>
			<output>
				<port id="2" precision="FP32" names="/_operators.0/Reshape_12_output_0">
					<dim>1</dim>
					<dim>100</dim>
				</port>
			</output>
		</layer>
		<layer id="51" name="/_operators.0/LessOrEqual_2" type="LessEqual" version="opset1">
			<data auto_broadcast="numpy" />
			<input>
				<port id="0" precision="FP32">
					<dim>1</dim>
					<dim>100</dim>
				</port>
				<port id="1" precision="FP32">
					<dim>1</dim>
					<dim>100</dim>
				</port>
			</input>
			<output>
				<port id="2" precision="BOOL" names="/_operators.0/LessOrEqual_2_output_0">
					<dim>1</dim>
					<dim>100</dim>
				</port>
			</output>
		</layer>
		<layer id="52" name="Constant_79" type="Const" version="opset1">
			<data element_type="i64" shape="" offset="46808" size="8" />
			<output>
				<port id="0" precision="I64" />
			</output>
		</layer>
		<layer id="53" name="/_operators.0/Gather_10" type="Gather" version="opset8">
			<data batch_dims="0" />
			<input>
				<port id="0" precision="I64">
					<dim>3100</dim>
				</port>
				<port id="1" precision="I64">
					<dim>100</dim>
				</port>
				<port id="2" precision="I64" />
			</input>
			<output>
				<port id="3" precision="I64" names="/_operators.0/Gather_10_output_0">
					<dim>100</dim>
				</port>
			</output>
		</layer>
		<layer id="54" name="/_operators.0/Constant_16" type="Const" version="opset1">
			<data element_type="i64" shape="2" offset="46816" size="16" />
			<rt_info>
				<attribute name="precise" version="0" />
			</rt_info>
			<output>
				<port id="0" precision="I64" names="/_operators.0/Constant_16_output_0">
					<dim>2</dim>
				</port>
			</output>
		</layer>
		<layer id="55" name="/_operators.0/Reshape_13" type="Reshape" version="opset1">
			<data special_zero="true" />
			<input>
				<port id="0" precision="I64">
					<dim>100</dim>
				</port>
				<port id="1" precision="I64">
					<dim>2</dim>
				</port>
			</input>
			<output>
				<port id="2" precision="I64" names="/_operators.0/Reshape_13_output_0">
					<dim>1</dim>
					<dim>100</dim>
				</port>
			</output>
		</layer>
		<layer id="56" name="Constant_83" type="Const" version="opset1">
			<data element_type="i64" shape="" offset="46808" size="8" />
			<output>
				<port id="0" precision="I64" />
			</output>
		</layer>
		<layer id="57" name="/_operators.0/Gather_11" type="Gather" version="opset8">
			<data batch_dims="0" />
			<input>
				<port id="0" precision="I64">
					<dim>3100</dim>
				</port>
				<port id="1" precision="I64">
					<dim>100</dim>
				</port>
				<port id="2" precision="I64" />
			</input>
			<output>
				<port id="3" precision="I64" names="/_operators.0/Gather_11_output_0">
					<dim>100</dim>
				</port>
			</output>
		</layer>
		<layer id="58" name="/_operators.0/Constant_17" type="Const" version="opset1">
			<data element_type="i64" shape="2" offset="46816" size="16" />
			<rt_info>
				<attribute name="precise" version="0" />
			</rt_info>
			<output>
				<port id="0" precision="I64" names="/_operators.0/Constant_17_output_0">
					<dim>2</dim>
				</port>
			</output>
		</layer>
		<layer id="59" name="/_operators.0/Reshape_14" type="Reshape" version="opset1">
			<data special_zero="true" />
			<input>
				<port id="0" precision="I64">
					<dim>100</dim>
				</port>
				<port id="1" precision="I64">
					<dim>2</dim>
				</port>
			</input>
			<output>
				<port id="2" precision="I64" names="/_operators.0/Reshape_14_output_0">
					<dim>1</dim>
					<dim>100</dim>
				</port>
			</output>
		</layer>
		<layer id="60" name="/_operators.0/Where_3" type="Select" version="opset1">
			<data auto_broadcast="numpy" />
			<input>
				<port id="0" precision="BOOL">
					<dim>1</dim>
					<dim>100</dim>
				</port>
				<port id="1" precision="I64">
					<dim>1</dim>
					<dim>100</dim>
				</port>
				<port id="2" precision="I64">
					<dim>1</dim>
					<dim>100</dim>
				</port>
			</input>
			<output>
				<port id="3" precision="I64" names="/_operators.0/Cast_2_output_0,/_operators.0/Where_3_output_0">
					<dim>1</dim>
					<dim>100</dim>
				</port>
			</output>
		</layer>
		<layer id="61" name="/_operators.0/Add_2" type="Add" version="opset1">
			<data auto_broadcast="numpy" />
			<input>
				<port id="0" precision="I64">
					<dim>1</dim>
					<dim>100</dim>
				</port>
				<port id="1" precision="I64">
					<dim>1</dim>
					<dim>100</dim>
				</port>
			</input>
			<output>
				<port id="2" precision="I64" names="/_operators.0/Add_2_output_0">
					<dim>1</dim>
					<dim>100</dim>
				</port>
			</output>
		</layer>
		<layer id="62" name="Constant_716" type="Const" version="opset1">
			<data element_type="i64" shape="1" offset="46800" size="8" />
			<rt_info>
				<attribute name="precise" version="0" />
			</rt_info>
			<output>
				<port id="0" precision="I64">
					<dim>1</dim>
				</port>
			</output>
		</layer>
		<layer id="63" name="/_operators.0/Reshape_15" type="Reshape" version="opset1">
			<data special_zero="true" />
			<input>
				<port id="0" precision="I64">
					<dim>1</dim>
					<dim>100</dim>
				</port>
				<port id="1" precision="I64">
					<dim>1</dim>
				</port>
			</input>
			<output>
				<port id="2" precision="I64" names="/_operators.0/Reshape_15_output_0">
					<dim>100</dim>
				</port>
			</output>
		</layer>
		<layer id="64" name="Constant_93" type="Const" version="opset1">
			<data element_type="i64" shape="" offset="46808" size="8" />
			<output>
				<port id="0" precision="I64" />
			</output>
		</layer>
		<layer id="65" name="/_operators.0/Gather_12" type="Gather" version="opset8">
			<data batch_dims="0" />
			<input>
				<port id="0" precision="I64">
					<dim>3100</dim>
				</port>
				<port id="1" precision="I64">
					<dim>100</dim>
				</port>
				<port id="2" precision="I64" />
			</input>
			<output>
				<port id="3" precision="I64" names="/_operators.0/Gather_12_output_0">
					<dim>100</dim>
				</port>
			</output>
		</layer>
		<layer id="66" name="/_operators.0/Constant_19" type="Const" version="opset1">
			<data element_type="i64" shape="2" offset="46816" size="16" />
			<rt_info>
				<attribute name="precise" version="0" />
			</rt_info>
			<output>
				<port id="0" precision="I64" names="/_operators.0/Constant_19_output_0">
					<dim>2</dim>
				</port>
			</output>
		</layer>
		<layer id="67" name="/_operators.0/Reshape_16" type="Reshape" version="opset1">
			<data special_zero="true" />
			<input>
				<port id="0" precision="I64">
					<dim>100</dim>
				</port>
				<port id="1" precision="I64">
					<dim>2</dim>
				</port>
			</input>
			<output>
				<port id="2" precision="I64" names="/_operators.0/Reshape_16_output_0">
					<dim>1</dim>
					<dim>100</dim>
				</port>
			</output>
		</layer>
		<layer id="68" name="/_operators.0/GatherElements_3" type="GatherElements" version="opset6">
			<data axis="1" />
			<input>
				<port id="0" precision="FP32">
					<dim>1</dim>
					<dim>7</dim>
				</port>
				<port id="1" precision="I64">
					<dim>1</dim>
					<dim>100</dim>
				</port>
			</input>
			<output>
				<port id="2" precision="FP32" names="/_operators.0/GatherElements_3_output_0">
					<dim>1</dim>
					<dim>100</dim>
				</port>
			</output>
		</layer>
		<layer id="69" name="Constant_98" type="Const" version="opset1">
			<data element_type="i64" shape="" offset="46808" size="8" />
			<output>
				<port id="0" precision="I64" />
			</output>
		</layer>
		<layer id="70" name="/_operators.0/Gather_13" type="Gather" version="opset8">
			<data batch_dims="0" />
			<input>
				<port id="0" precision="FP32">
					<dim>3100</dim>
				</port>
				<port id="1" precision="I64">
					<dim>100</dim>
				</port>
				<port id="2" precision="I64" />
			</input>
			<output>
				<port id="3" precision="FP32" names="/_operators.0/Gather_13_output_0">
					<dim>100</dim>
				</port>
			</output>
		</layer>
		<layer id="71" name="/_operators.0/Constant_20" type="Const" version="opset1">
			<data element_type="i64" shape="2" offset="46816" size="16" />
			<rt_info>
				<attribute name="precise" version="0" />
			</rt_info>
			<output>
				<port id="0" precision="I64" names="/_operators.0/Constant_20_output_0">
					<dim>2</dim>
				</port>
			</output>
		</layer>
		<layer id="72" name="/_operators.0/Reshape_17" type="Reshape" version="opset1">
			<data special_zero="true" />
			<input>
				<port id="0" precision="FP32">
					<dim>100</dim>
				</port>
				<port id="1" precision="I64">
					<dim>2</dim>
				</port>
			</input>
			<output>
				<port id="2" precision="FP32" names="/_operators.0/Reshape_17_output_0">
					<dim>1</dim>
					<dim>100</dim>
				</port>
			</output>
		</layer>
		<layer id="73" name="/_operators.0/LessOrEqual_3" type="LessEqual" version="opset1">
			<data auto_broadcast="numpy" />
			<input>
				<port id="0" precision="FP32">
					<dim>1</dim>
					<dim>100</dim>
				</port>
				<port id="1" precision="FP32">
					<dim>1</dim>
					<dim>100</dim>
				</port>
			</input>
			<output>
				<port id="2" precision="BOOL" names="/_operators.0/LessOrEqual_3_output_0">
					<dim>1</dim>
					<dim>100</dim>
				</port>
			</output>
		</layer>
		<layer id="74" name="Constant_102" type="Const" version="opset1">
			<data element_type="i64" shape="" offset="46808" size="8" />
			<output>
				<port id="0" precision="I64" />
			</output>
		</layer>
		<layer id="75" name="/_operators.0/Gather_14" type="Gather" version="opset8">
			<data batch_dims="0" />
			<input>
				<port id="0" precision="I64">
					<dim>3100</dim>
				</port>
				<port id="1" precision="I64">
					<dim>100</dim>
				</port>
				<port id="2" precision="I64" />
			</input>
			<output>
				<port id="3" precision="I64" names="/_operators.0/Gather_14_output_0">
					<dim>100</dim>
				</port>
			</output>
		</layer>
		<layer id="76" name="/_operators.0/Constant_21" type="Const" version="opset1">
			<data element_type="i64" shape="2" offset="46816" size="16" />
			<rt_info>
				<attribute name="precise" version="0" />
			</rt_info>
			<output>
				<port id="0" precision="I64" names="/_operators.0/Constant_21_output_0">
					<dim>2</dim>
				</port>
			</output>
		</layer>
		<layer id="77" name="/_operators.0/Reshape_18" type="Reshape" version="opset1">
			<data special_zero="true" />
			<input>
				<port id="0" precision="I64">
					<dim>100</dim>
				</port>
				<port id="1" precision="I64">
					<dim>2</dim>
				</port>
			</input>
			<output>
				<port id="2" precision="I64" names="/_operators.0/Reshape_18_output_0">
					<dim>1</dim>
					<dim>100</dim>
				</port>
			</output>
		</layer>
		<layer id="78" name="Constant_106" type="Const" version="opset1">
			<data element_type="i64" shape="" offset="46808" size="8" />
			<output>
				<port id="0" precision="I64" />
			</output>
		</layer>
		<layer id="79" name="/_operators.0/Gather_15" type="Gather" version="opset8">
			<data batch_dims="0" />
			<input>
				<port id="0" precision="I64">
					<dim>3100</dim>
				</port>
				<port id="1" precision="I64">
					<dim>100</dim>
				</port>
				<port id="2" precision="I64" />
			</input>
			<output>
				<port id="3" precision="I64" names="/_operators.0/Gather_15_output_0">
					<dim>100</dim>
				</port>
			</output>
		</layer>
		<layer id="80" name="/_operators.0/Constant_22" type="Const" version="opset1">
			<data element_type="i64" shape="2" offset="46816" size="16" />
			<rt_info>
				<attribute name="precise" version="0" />
			</rt_info>
			<output>
				<port id="0" precision="I64" names="/_operators.0/Constant_22_output_0">
					<dim>2</dim>
				</port>
			</output>
		</layer>
		<layer id="81" name="/_operators.0/Reshape_19" type="Reshape" version="opset1">
			<data special_zero="true" />
			<input>
				<port id="0" precision="I64">
					<dim>100</dim>
				</port>
				<port id="1" precision="I64">
					<dim>2</dim>
				</port>
			</input>
			<output>
				<port id="2" precision="I64" names="/_operators.0/Reshape_19_output_0">
					<dim>1</dim>
					<dim>100</dim>
				</port>
			</output>
		</layer>
		<layer id="82" name="/_operators.0/Where_4" type="Select" version="opset1">
			<data auto_broadcast="numpy" />
			<input>
				<port id="0" precision="BOOL">
					<dim>1</dim>
					<dim>100</dim>
				</port>
				<port id="1" precision="I64">
					<dim>1</dim>
					<dim>100</dim>
				</port>
				<port id="2" precision="I64">
					<dim>1</dim>
					<dim>100</dim>
				</port>
			</input>
			<output>
				<port id="3" precision="I64" names="/_operators.0/Cast_3_output_0,/_operators.0/Where_4_output_0">
					<dim>1</dim>
					<dim>100</dim>
				</port>
			</output>
		</layer>
		<layer id="83" name="/_operators.0/Add_3" type="Add" version="opset1">
			<data auto_broadcast="numpy" />
			<input>
				<port id="0" precision="I64">
					<dim>1</dim>
					<dim>100</dim>
				</port>
				<port id="1" precision="I64">
					<dim>1</dim>
					<dim>100</dim>
				</port>
			</input>
			<output>
				<port id="2" precision="I64" names="/_operators.0/Add_3_output_0">
					<dim>1</dim>
					<dim>100</dim>
				</port>
			</output>
		</layer>
		<layer id="84" name="Constant_717" type="Const" version="opset1">
			<data element_type="i64" shape="1" offset="46800" size="8" />
			<rt_info>
				<attribute name="precise" version="0" />
			</rt_info>
			<output>
				<port id="0" precision="I64">
					<dim>1</dim>
				</port>
			</output>
		</layer>
		<layer id="85" name="/_operators.0/Reshape_20" type="Reshape" version="opset1">
			<data special_zero="true" />
			<input>
				<port id="0" precision="I64">
					<dim>1</dim>
					<dim>100</dim>
				</port>
				<port id="1" precision="I64">
					<dim>1</dim>
				</port>
			</input>
			<output>
				<port id="2" precision="I64" names="/_operators.0/Reshape_20_output_0">
					<dim>100</dim>
				</port>
			</output>
		</layer>
		<layer id="86" name="Constant_116" type="Const" version="opset1">
			<data element_type="i64" shape="" offset="46808" size="8" />
			<output>
				<port id="0" precision="I64" />
			</output>
		</layer>
		<layer id="87" name="/_operators.0/Gather_16" type="Gather" version="opset8">
			<data batch_dims="0" />
			<input>
				<port id="0" precision="I64">
					<dim>3100</dim>
				</port>
				<port id="1" precision="I64">
					<dim>100</dim>
				</port>
				<port id="2" precision="I64" />
			</input>
			<output>
				<port id="3" precision="I64" names="/_operators.0/Gather_16_output_0">
					<dim>100</dim>
				</port>
			</output>
		</layer>
		<layer id="88" name="/_operators.0/Constant_24" type="Const" version="opset1">
			<data element_type="i64" shape="2" offset="46816" size="16" />
			<rt_info>
				<attribute name="precise" version="0" />
			</rt_info>
			<output>
				<port id="0" precision="I64" names="/_operators.0/Constant_24_output_0">
					<dim>2</dim>
				</port>
			</output>
		</layer>
		<layer id="89" name="/_operators.0/Reshape_21" type="Reshape" version="opset1">
			<data special_zero="true" />
			<input>
				<port id="0" precision="I64">
					<dim>100</dim>
				</port>
				<port id="1" precision="I64">
					<dim>2</dim>
				</port>
			</input>
			<output>
				<port id="2" precision="I64" names="/_operators.0/Reshape_21_output_0">
					<dim>1</dim>
					<dim>100</dim>
				</port>
			</output>
		</layer>
		<layer id="90" name="/_operators.0/GatherElements_4" type="GatherElements" version="opset6">
			<data axis="1" />
			<input>
				<port id="0" precision="FP32">
					<dim>1</dim>
					<dim>7</dim>
				</port>
				<port id="1" precision="I64">
					<dim>1</dim>
					<dim>100</dim>
				</port>
			</input>
			<output>
				<port id="2" precision="FP32" names="/_operators.0/GatherElements_4_output_0">
					<dim>1</dim>
					<dim>100</dim>
				</port>
			</output>
		</layer>
		<layer id="91" name="Constant_121" type="Const" version="opset1">
			<data element_type="i64" shape="" offset="46808" size="8" />
			<output>
				<port id="0" precision="I64" />
			</output>
		</layer>
		<layer id="92" name="/_operators.0/Gather_17" type="Gather" version="opset8">
			<data batch_dims="0" />
			<input>
				<port id="0" precision="FP32">
					<dim>3100</dim>
				</port>
				<port id="1" precision="I64">
					<dim>100</dim>
				</port>
				<port id="2" precision="I64" />
			</input>
			<output>
				<port id="3" precision="FP32" names="/_operators.0/Gather_17_output_0">
					<dim>100</dim>
				</port>
			</output>
		</layer>
		<layer id="93" name="/_operators.0/Constant_25" type="Const" version="opset1">
			<data element_type="i64" shape="2" offset="46816" size="16" />
			<rt_info>
				<attribute name="precise" version="0" />
			</rt_info>
			<output>
				<port id="0" precision="I64" names="/_operators.0/Constant_25_output_0">
					<dim>2</dim>
				</port>
			</output>
		</layer>
		<layer id="94" name="/_operators.0/Reshape_22" type="Reshape" version="opset1">
			<data special_zero="true" />
			<input>
				<port id="0" precision="FP32">
					<dim>100</dim>
				</port>
				<port id="1" precision="I64">
					<dim>2</dim>
				</port>
			</input>
			<output>
				<port id="2" precision="FP32" names="/_operators.0/Reshape_22_output_0">
					<dim>1</dim>
					<dim>100</dim>
				</port>
			</output>
		</layer>
		<layer id="95" name="/_operators.0/LessOrEqual_4" type="LessEqual" version="opset1">
			<data auto_broadcast="numpy" />
			<input>
				<port id="0" precision="FP32">
					<dim>1</dim>
					<dim>100</dim>
				</port>
				<port id="1" precision="FP32">
					<dim>1</dim>
					<dim>100</dim>
				</port>
			</input>
			<output>
				<port id="2" precision="BOOL" names="/_operators.0/LessOrEqual_4_output_0">
					<dim>1</dim>
					<dim>100</dim>
				</port>
			</output>
		</layer>
		<layer id="96" name="Constant_125" type="Const" version="opset1">
			<data element_type="i64" shape="" offset="46808" size="8" />
			<output>
				<port id="0" precision="I64" />
			</output>
		</layer>
		<layer id="97" name="/_operators.0/Gather_18" type="Gather" version="opset8">
			<data batch_dims="0" />
			<input>
				<port id="0" precision="I64">
					<dim>3100</dim>
				</port>
				<port id="1" precision="I64">
					<dim>100</dim>
				</port>
				<port id="2" precision="I64" />
			</input>
			<output>
				<port id="3" precision="I64" names="/_operators.0/Gather_18_output_0">
					<dim>100</dim>
				</port>
			</output>
		</layer>
		<layer id="98" name="/_operators.0/Constant_26" type="Const" version="opset1">
			<data element_type="i64" shape="2" offset="46816" size="16" />
			<rt_info>
				<attribute name="precise" version="0" />
			</rt_info>
			<output>
				<port id="0" precision="I64" names="/_operators.0/Constant_26_output_0">
					<dim>2</dim>
				</port>
			</output>
		</layer>
		<layer id="99" name="/_operators.0/Reshape_23" type="Reshape" version="opset1">
			<data special_zero="true" />
			<input>
				<port id="0" precision="I64">
					<dim>100</dim>
				</port>
				<port id="1" precision="I64">
					<dim>2</dim>
				</port>
			</input>
			<output>
				<port id="2" precision="I64" names="/_operators.0/Reshape_23_output_0">
					<dim>1</dim>
					<dim>100</dim>
				</port>
			</output>
		</layer>
		<layer id="100" name="Constant_129" type="Const" version="opset1">
			<data element_type="i64" shape="" offset="46808" size="8" />
			<output>
				<port id="0" precision="I64" />
			</output>
		</layer>
		<layer id="101" name="/_operators.0/Gather_19" type="Gather" version="opset8">
			<data batch_dims="0" />
			<input>
				<port id="0" precision="I64">
					<dim>3100</dim>
				</port>
				<port id="1" precision="I64">
					<dim>100</dim>
				</port>
				<port id="2" precision="I64" />
			</input>
			<output>
				<port id="3" precision="I64" names="/_operators.0/Gather_19_output_0">
					<dim>100</dim>
				</port>
			</output>
		</layer>
		<layer id="102" name="/_operators.0/Constant_27" type="Const" version="opset1">
			<data element_type="i64" shape="2" offset="46816" size="16" />
			<rt_info>
				<attribute name="precise" version="0" />
			</rt_info>
			<output>
				<port id="0" precision="I64" names="/_operators.0/Constant_27_output_0">
					<dim>2</dim>
				</port>
			</output>
		</layer>
		<layer id="103" name="/_operators.0/Reshape_24" type="Reshape" version="opset1">
			<data special_zero="true" />
			<input>
				<port id="0" precision="I64">
					<dim>100</dim>
				</port>
				<port id="1" precision="I64">
					<dim>2</dim>
				</port>
			</input>
			<output>
				<port id="2" precision="I64" names="/_operators.0/Reshape_24_output_0">
					<dim>1</dim>
					<dim>100</dim>
				</port>
			</output>
		</layer>
		<layer id="104" name="/_operators.0/Where_5" type="Select" version="opset1">
			<data auto_broadcast="numpy" />
			<input>
				<port id="0" precision="BOOL">
					<dim>1</dim>
					<dim>100</dim>
				</port>
				<port id="1" precision="I64">
					<dim>1</dim>
					<dim>100</dim>
				</port>
				<port id="2" precision="I64">
					<dim>1</dim>
					<dim>100</dim>
				</port>
			</input>
			<output>
				<port id="3" precision="I64" names="/_operators.0/Cast_4_output_0,/_operators.0/Where_5_output_0">
					<dim>1</dim>
					<dim>100</dim>
				</port>
			</output>
		</layer>
		<layer id="105" name="/_operators.0/Add_4" type="Add" version="opset1">
			<data auto_broadcast="numpy" />
			<input>
				<port id="0" precision="I64">
					<dim>1</dim>
					<dim>100</dim>
				</port>
				<port id="1" precision="I64">
					<dim>1</dim>
					<dim>100</dim>
				</port>
			</input>
			<output>
				<port id="2" precision="I64" names="/_operators.0/Add_4_output_0">
					<dim>1</dim>
					<dim>100</dim>
				</port>
			</output>
		</layer>
		<layer id="106" name="Constant_718" type="Const" version="opset1">
			<data element_type="i64" shape="1" offset="46800" size="8" />
			<rt_info>
				<attribute name="precise" version="0" />
			</rt_info>
			<output>
				<port id="0" precision="I64">
					<dim>1</dim>
				</port>
			</output>
		</layer>
		<layer id="107" name="/_operators.0/Reshape_25" type="Reshape" version="opset1">
			<data special_zero="true" />
			<input>
				<port id="0" precision="I64">
					<dim>1</dim>
					<dim>100</dim>
				</port>
				<port id="1" precision="I64">
					<dim>1</dim>
				</port>
			</input>
			<output>
				<port id="2" precision="I64" names="/_operators.0/Reshape_25_output_0">
					<dim>100</dim>
				</port>
			</output>
		</layer>
		<layer id="108" name="Constant_139" type="Const" version="opset1">
			<data element_type="i64" shape="" offset="46808" size="8" />
			<output>
				<port id="0" precision="I64" />
			</output>
		</layer>
		<layer id="109" name="/_operators.0/Gather_20" type="Gather" version="opset8">
			<data batch_dims="0" />
			<input>
				<port id="0" precision="I64">
					<dim>3100</dim>
				</port>
				<port id="1" precision="I64">
					<dim>100</dim>
				</port>
				<port id="2" precision="I64" />
			</input>
			<output>
				<port id="3" precision="I64" names="/_operators.0/Gather_20_output_0">
					<dim>100</dim>
				</port>
			</output>
		</layer>
		<layer id="110" name="/_operators.0/Constant_29" type="Const" version="opset1">
			<data element_type="i64" shape="2" offset="46816" size="16" />
			<rt_info>
				<attribute name="precise" version="0" />
			</rt_info>
			<output>
				<port id="0" precision="I64" names="/_operators.0/Constant_29_output_0">
					<dim>2</dim>
				</port>
			</output>
		</layer>
		<layer id="111" name="/_operators.0/Reshape_26" type="Reshape" version="opset1">
			<data special_zero="true" />
			<input>
				<port id="0" precision="I64">
					<dim>100</dim>
				</port>
				<port id="1" precision="I64">
					<dim>2</dim>
				</port>
			</input>
			<output>
				<port id="2" precision="I64" names="/_operators.0/Reshape_26_output_0">
					<dim>1</dim>
					<dim>100</dim>
				</port>
			</output>
		</layer>
		<layer id="112" name="/_operators.0/GatherElements_5" type="GatherElements" version="opset6">
			<data axis="1" />
			<input>
				<port id="0" precision="FP32">
					<dim>1</dim>
					<dim>7</dim>
				</port>
				<port id="1" precision="I64">
					<dim>1</dim>
					<dim>100</dim>
				</port>
			</input>
			<output>
				<port id="2" precision="FP32" names="/_operators.0/GatherElements_5_output_0">
					<dim>1</dim>
					<dim>100</dim>
				</port>
			</output>
		</layer>
		<layer id="113" name="Constant_144" type="Const" version="opset1">
			<data element_type="i64" shape="" offset="46808" size="8" />
			<output>
				<port id="0" precision="I64" />
			</output>
		</layer>
		<layer id="114" name="/_operators.0/Gather_21" type="Gather" version="opset8">
			<data batch_dims="0" />
			<input>
				<port id="0" precision="FP32">
					<dim>3100</dim>
				</port>
				<port id="1" precision="I64">
					<dim>100</dim>
				</port>
				<port id="2" precision="I64" />
			</input>
			<output>
				<port id="3" precision="FP32" names="/_operators.0/Gather_21_output_0">
					<dim>100</dim>
				</port>
			</output>
		</layer>
		<layer id="115" name="/_operators.0/Constant_30" type="Const" version="opset1">
			<data element_type="i64" shape="2" offset="46816" size="16" />
			<rt_info>
				<attribute name="precise" version="0" />
			</rt_info>
			<output>
				<port id="0" precision="I64" names="/_operators.0/Constant_30_output_0">
					<dim>2</dim>
				</port>
			</output>
		</layer>
		<layer id="116" name="/_operators.0/Reshape_27" type="Reshape" version="opset1">
			<data special_zero="true" />
			<input>
				<port id="0" precision="FP32">
					<dim>100</dim>
				</port>
				<port id="1" precision="I64">
					<dim>2</dim>
				</port>
			</input>
			<output>
				<port id="2" precision="FP32" names="/_operators.0/Reshape_27_output_0">
					<dim>1</dim>
					<dim>100</dim>
				</port>
			</output>
		</layer>
		<layer id="117" name="/_operators.0/LessOrEqual_5" type="LessEqual" version="opset1">
			<data auto_broadcast="numpy" />
			<input>
				<port id="0" precision="FP32">
					<dim>1</dim>
					<dim>100</dim>
				</port>
				<port id="1" precision="FP32">
					<dim>1</dim>
					<dim>100</dim>
				</port>
			</input>
			<output>
				<port id="2" precision="BOOL" names="/_operators.0/LessOrEqual_5_output_0">
					<dim>1</dim>
					<dim>100</dim>
				</port>
			</output>
		</layer>
		<layer id="118" name="Constant_148" type="Const" version="opset1">
			<data element_type="i64" shape="" offset="46808" size="8" />
			<output>
				<port id="0" precision="I64" />
			</output>
		</layer>
		<layer id="119" name="/_operators.0/Gather_22" type="Gather" version="opset8">
			<data batch_dims="0" />
			<input>
				<port id="0" precision="I64">
					<dim>3100</dim>
				</port>
				<port id="1" precision="I64">
					<dim>100</dim>
				</port>
				<port id="2" precision="I64" />
			</input>
			<output>
				<port id="3" precision="I64" names="/_operators.0/Gather_22_output_0">
					<dim>100</dim>
				</port>
			</output>
		</layer>
		<layer id="120" name="/_operators.0/Constant_31" type="Const" version="opset1">
			<data element_type="i64" shape="2" offset="46816" size="16" />
			<rt_info>
				<attribute name="precise" version="0" />
			</rt_info>
			<output>
				<port id="0" precision="I64" names="/_operators.0/Constant_31_output_0">
					<dim>2</dim>
				</port>
			</output>
		</layer>
		<layer id="121" name="/_operators.0/Reshape_28" type="Reshape" version="opset1">
			<data special_zero="true" />
			<input>
				<port id="0" precision="I64">
					<dim>100</dim>
				</port>
				<port id="1" precision="I64">
					<dim>2</dim>
				</port>
			</input>
			<output>
				<port id="2" precision="I64" names="/_operators.0/Reshape_28_output_0">
					<dim>1</dim>
					<dim>100</dim>
				</port>
			</output>
		</layer>
		<layer id="122" name="Constant_152" type="Const" version="opset1">
			<data element_type="i64" shape="" offset="46808" size="8" />
			<output>
				<port id="0" precision="I64" />
			</output>
		</layer>
		<layer id="123" name="/_operators.0/Gather_23" type="Gather" version="opset8">
			<data batch_dims="0" />
			<input>
				<port id="0" precision="I64">
					<dim>3100</dim>
				</port>
				<port id="1" precision="I64">
					<dim>100</dim>
				</port>
				<port id="2" precision="I64" />
			</input>
			<output>
				<port id="3" precision="I64" names="/_operators.0/Gather_23_output_0">
					<dim>100</dim>
				</port>
			</output>
		</layer>
		<layer id="124" name="/_operators.0/Constant_32" type="Const" version="opset1">
			<data element_type="i64" shape="2" offset="46816" size="16" />
			<rt_info>
				<attribute name="precise" version="0" />
			</rt_info>
			<output>
				<port id="0" precision="I64" names="/_operators.0/Constant_32_output_0">
					<dim>2</dim>
				</port>
			</output>
		</layer>
		<layer id="125" name="/_operators.0/Reshape_29" type="Reshape" version="opset1">
			<data special_zero="true" />
			<input>
				<port id="0" precision="I64">
					<dim>100</dim>
				</port>
				<port id="1" precision="I64">
					<dim>2</dim>
				</port>
			</input>
			<output>
				<port id="2" precision="I64" names="/_operators.0/Reshape_29_output_0">
					<dim>1</dim>
					<dim>100</dim>
				</port>
			</output>
		</layer>
		<layer id="126" name="/_operators.0/Where_6" type="Select" version="opset1">
			<data auto_broadcast="numpy" />
			<input>
				<port id="0" precision="BOOL">
					<dim>1</dim>
					<dim>100</dim>
				</port>
				<port id="1" precision="I64">
					<dim>1</dim>
					<dim>100</dim>
				</port>
				<port id="2" precision="I64">
					<dim>1</dim>
					<dim>100</dim>
				</port>
			</input>
			<output>
				<port id="3" precision="I64" names="/_operators.0/Cast_5_output_0,/_operators.0/Where_6_output_0">
					<dim>1</dim>
					<dim>100</dim>
				</port>
			</output>
		</layer>
		<layer id="127" name="/_operators.0/Add_5" type="Add" version="opset1">
			<data auto_broadcast="numpy" />
			<input>
				<port id="0" precision="I64">
					<dim>1</dim>
					<dim>100</dim>
				</port>
				<port id="1" precision="I64">
					<dim>1</dim>
					<dim>100</dim>
				</port>
			</input>
			<output>
				<port id="2" precision="I64" names="/_operators.0/Add_5_output_0">
					<dim>1</dim>
					<dim>100</dim>
				</port>
			</output>
		</layer>
		<layer id="128" name="Constant_719" type="Const" version="opset1">
			<data element_type="i64" shape="1" offset="46800" size="8" />
			<rt_info>
				<attribute name="precise" version="0" />
			</rt_info>
			<output>
				<port id="0" precision="I64">
					<dim>1</dim>
				</port>
			</output>
		</layer>
		<layer id="129" name="/_operators.0/Reshape_30" type="Reshape" version="opset1">
			<data special_zero="true" />
			<input>
				<port id="0" precision="I64">
					<dim>1</dim>
					<dim>100</dim>
				</port>
				<port id="1" precision="I64">
					<dim>1</dim>
				</port>
			</input>
			<output>
				<port id="2" precision="I64" names="/_operators.0/Reshape_30_output_0">
					<dim>100</dim>
				</port>
			</output>
		</layer>
		<layer id="130" name="Constant_162" type="Const" version="opset1">
			<data element_type="i64" shape="" offset="46808" size="8" />
			<output>
				<port id="0" precision="I64" />
			</output>
		</layer>
		<layer id="131" name="/_operators.0/Gather_24" type="Gather" version="opset8">
			<data batch_dims="0" />
			<input>
				<port id="0" precision="I64">
					<dim>3100</dim>
				</port>
				<port id="1" precision="I64">
					<dim>100</dim>
				</port>
				<port id="2" precision="I64" />
			</input>
			<output>
				<port id="3" precision="I64" names="/_operators.0/Gather_24_output_0">
					<dim>100</dim>
				</port>
			</output>
		</layer>
		<layer id="132" name="/_operators.0/Constant_34" type="Const" version="opset1">
			<data element_type="i64" shape="2" offset="46816" size="16" />
			<rt_info>
				<attribute name="precise" version="0" />
			</rt_info>
			<output>
				<port id="0" precision="I64" names="/_operators.0/Constant_34_output_0">
					<dim>2</dim>
				</port>
			</output>
		</layer>
		<layer id="133" name="/_operators.0/Reshape_31" type="Reshape" version="opset1">
			<data special_zero="true" />
			<input>
				<port id="0" precision="I64">
					<dim>100</dim>
				</port>
				<port id="1" precision="I64">
					<dim>2</dim>
				</port>
			</input>
			<output>
				<port id="2" precision="I64" names="/_operators.0/Reshape_31_output_0">
					<dim>1</dim>
					<dim>100</dim>
				</port>
			</output>
		</layer>
		<layer id="134" name="/_operators.0/GatherElements_6" type="GatherElements" version="opset6">
			<data axis="1" />
			<input>
				<port id="0" precision="FP32">
					<dim>1</dim>
					<dim>7</dim>
				</port>
				<port id="1" precision="I64">
					<dim>1</dim>
					<dim>100</dim>
				</port>
			</input>
			<output>
				<port id="2" precision="FP32" names="/_operators.0/GatherElements_6_output_0">
					<dim>1</dim>
					<dim>100</dim>
				</port>
			</output>
		</layer>
		<layer id="135" name="Constant_167" type="Const" version="opset1">
			<data element_type="i64" shape="" offset="46808" size="8" />
			<output>
				<port id="0" precision="I64" />
			</output>
		</layer>
		<layer id="136" name="/_operators.0/Gather_25" type="Gather" version="opset8">
			<data batch_dims="0" />
			<input>
				<port id="0" precision="FP32">
					<dim>3100</dim>
				</port>
				<port id="1" precision="I64">
					<dim>100</dim>
				</port>
				<port id="2" precision="I64" />
			</input>
			<output>
				<port id="3" precision="FP32" names="/_operators.0/Gather_25_output_0">
					<dim>100</dim>
				</port>
			</output>
		</layer>
		<layer id="137" name="/_operators.0/Constant_35" type="Const" version="opset1">
			<data element_type="i64" shape="2" offset="46816" size="16" />
			<rt_info>
				<attribute name="precise" version="0" />
			</rt_info>
			<output>
				<port id="0" precision="I64" names="/_operators.0/Constant_35_output_0">
					<dim>2</dim>
				</port>
			</output>
		</layer>
		<layer id="138" name="/_operators.0/Reshape_32" type="Reshape" version="opset1">
			<data special_zero="true" />
			<input>
				<port id="0" precision="FP32">
					<dim>100</dim>
				</port>
				<port id="1" precision="I64">
					<dim>2</dim>
				</port>
			</input>
			<output>
				<port id="2" precision="FP32" names="/_operators.0/Reshape_32_output_0">
					<dim>1</dim>
					<dim>100</dim>
				</port>
			</output>
		</layer>
		<layer id="139" name="/_operators.0/LessOrEqual_6" type="LessEqual" version="opset1">
			<data auto_broadcast="numpy" />
			<input>
				<port id="0" precision="FP32">
					<dim>1</dim>
					<dim>100</dim>
				</port>
				<port id="1" precision="FP32">
					<dim>1</dim>
					<dim>100</dim>
				</port>
			</input>
			<output>
				<port id="2" precision="BOOL" names="/_operators.0/LessOrEqual_6_output_0">
					<dim>1</dim>
					<dim>100</dim>
				</port>
			</output>
		</layer>
		<layer id="140" name="Constant_171" type="Const" version="opset1">
			<data element_type="i64" shape="" offset="46808" size="8" />
			<output>
				<port id="0" precision="I64" />
			</output>
		</layer>
		<layer id="141" name="/_operators.0/Gather_26" type="Gather" version="opset8">
			<data batch_dims="0" />
			<input>
				<port id="0" precision="I64">
					<dim>3100</dim>
				</port>
				<port id="1" precision="I64">
					<dim>100</dim>
				</port>
				<port id="2" precision="I64" />
			</input>
			<output>
				<port id="3" precision="I64" names="/_operators.0/Gather_26_output_0">
					<dim>100</dim>
				</port>
			</output>
		</layer>
		<layer id="142" name="/_operators.0/Constant_36" type="Const" version="opset1">
			<data element_type="i64" shape="2" offset="46816" size="16" />
			<rt_info>
				<attribute name="precise" version="0" />
			</rt_info>
			<output>
				<port id="0" precision="I64" names="/_operators.0/Constant_36_output_0">
					<dim>2</dim>
				</port>
			</output>
		</layer>
		<layer id="143" name="/_operators.0/Reshape_33" type="Reshape" version="opset1">
			<data special_zero="true" />
			<input>
				<port id="0" precision="I64">
					<dim>100</dim>
				</port>
				<port id="1" precision="I64">
					<dim>2</dim>
				</port>
			</input>
			<output>
				<port id="2" precision="I64" names="/_operators.0/Reshape_33_output_0">
					<dim>1</dim>
					<dim>100</dim>
				</port>
			</output>
		</layer>
		<layer id="144" name="Constant_175" type="Const" version="opset1">
			<data element_type="i64" shape="" offset="46808" size="8" />
			<output>
				<port id="0" precision="I64" />
			</output>
		</layer>
		<layer id="145" name="/_operators.0/Gather_27" type="Gather" version="opset8">
			<data batch_dims="0" />
			<input>
				<port id="0" precision="I64">
					<dim>3100</dim>
				</port>
				<port id="1" precision="I64">
					<dim>100</dim>
				</port>
				<port id="2" precision="I64" />
			</input>
			<output>
				<port id="3" precision="I64" names="/_operators.0/Gather_27_output_0">
					<dim>100</dim>
				</port>
			</output>
		</layer>
		<layer id="146" name="/_operators.0/Constant_37" type="Const" version="opset1">
			<data element_type="i64" shape="2" offset="46816" size="16" />
			<rt_info>
				<attribute name="precise" version="0" />
			</rt_info>
			<output>
				<port id="0" precision="I64" names="/_operators.0/Constant_37_output_0">
					<dim>2</dim>
				</port>
			</output>
		</layer>
		<layer id="147" name="/_operators.0/Reshape_34" type="Reshape" version="opset1">
			<data special_zero="true" />
			<input>
				<port id="0" precision="I64">
					<dim>100</dim>
				</port>
				<port id="1" precision="I64">
					<dim>2</dim>
				</port>
			</input>
			<output>
				<port id="2" precision="I64" names="/_operators.0/Reshape_34_output_0">
					<dim>1</dim>
					<dim>100</dim>
				</port>
			</output>
		</layer>
		<layer id="148" name="/_operators.0/Where_7" type="Select" version="opset1">
			<data auto_broadcast="numpy" />
			<input>
				<port id="0" precision="BOOL">
					<dim>1</dim>
					<dim>100</dim>
				</port>
				<port id="1" precision="I64">
					<dim>1</dim>
					<dim>100</dim>
				</port>
				<port id="2" precision="I64">
					<dim>1</dim>
					<dim>100</dim>
				</port>
			</input>
			<output>
				<port id="3" precision="I64" names="/_operators.0/Cast_6_output_0,/_operators.0/Where_7_output_0">
					<dim>1</dim>
					<dim>100</dim>
				</port>
			</output>
		</layer>
		<layer id="149" name="/_operators.0/Add_6" type="Add" version="opset1">
			<data auto_broadcast="numpy" />
			<input>
				<port id="0" precision="I64">
					<dim>1</dim>
					<dim>100</dim>
				</port>
				<port id="1" precision="I64">
					<dim>1</dim>
					<dim>100</dim>
				</port>
			</input>
			<output>
				<port id="2" precision="I64" names="/_operators.0/Add_6_output_0">
					<dim>1</dim>
					<dim>100</dim>
				</port>
			</output>
		</layer>
		<layer id="150" name="Constant_720" type="Const" version="opset1">
			<data element_type="i64" shape="1" offset="46800" size="8" />
			<rt_info>
				<attribute name="precise" version="0" />
			</rt_info>
			<output>
				<port id="0" precision="I64">
					<dim>1</dim>
				</port>
			</output>
		</layer>
		<layer id="151" name="/_operators.0/Reshape_35" type="Reshape" version="opset1">
			<data special_zero="true" />
			<input>
				<port id="0" precision="I64">
					<dim>1</dim>
					<dim>100</dim>
				</port>
				<port id="1" precision="I64">
					<dim>1</dim>
				</port>
			</input>
			<output>
				<port id="2" precision="I64" names="/_operators.0/Reshape_35_output_0">
					<dim>100</dim>
				</port>
			</output>
		</layer>
		<layer id="152" name="Constant_185" type="Const" version="opset1">
			<data element_type="i64" shape="" offset="46808" size="8" />
			<output>
				<port id="0" precision="I64" />
			</output>
		</layer>
		<layer id="153" name="/_operators.0/Gather_28" type="Gather" version="opset8">
			<data batch_dims="0" />
			<input>
				<port id="0" precision="I64">
					<dim>3100</dim>
				</port>
				<port id="1" precision="I64">
					<dim>100</dim>
				</port>
				<port id="2" precision="I64" />
			</input>
			<output>
				<port id="3" precision="I64" names="/_operators.0/Gather_28_output_0">
					<dim>100</dim>
				</port>
			</output>
		</layer>
		<layer id="154" name="/_operators.0/Constant_39" type="Const" version="opset1">
			<data element_type="i64" shape="2" offset="46816" size="16" />
			<rt_info>
				<attribute name="precise" version="0" />
			</rt_info>
			<output>
				<port id="0" precision="I64" names="/_operators.0/Constant_39_output_0">
					<dim>2</dim>
				</port>
			</output>
		</layer>
		<layer id="155" name="/_operators.0/Reshape_36" type="Reshape" version="opset1">
			<data special_zero="true" />
			<input>
				<port id="0" precision="I64">
					<dim>100</dim>
				</port>
				<port id="1" precision="I64">
					<dim>2</dim>
				</port>
			</input>
			<output>
				<port id="2" precision="I64" names="/_operators.0/Reshape_36_output_0">
					<dim>1</dim>
					<dim>100</dim>
				</port>
			</output>
		</layer>
		<layer id="156" name="/_operators.0/GatherElements_7" type="GatherElements" version="opset6">
			<data axis="1" />
			<input>
				<port id="0" precision="FP32">
					<dim>1</dim>
					<dim>7</dim>
				</port>
				<port id="1" precision="I64">
					<dim>1</dim>
					<dim>100</dim>
				</port>
			</input>
			<output>
				<port id="2" precision="FP32" names="/_operators.0/GatherElements_7_output_0">
					<dim>1</dim>
					<dim>100</dim>
				</port>
			</output>
		</layer>
		<layer id="157" name="Constant_190" type="Const" version="opset1">
			<data element_type="i64" shape="" offset="46808" size="8" />
			<output>
				<port id="0" precision="I64" />
			</output>
		</layer>
		<layer id="158" name="/_operators.0/Gather_29" type="Gather" version="opset8">
			<data batch_dims="0" />
			<input>
				<port id="0" precision="FP32">
					<dim>3100</dim>
				</port>
				<port id="1" precision="I64">
					<dim>100</dim>
				</port>
				<port id="2" precision="I64" />
			</input>
			<output>
				<port id="3" precision="FP32" names="/_operators.0/Gather_29_output_0">
					<dim>100</dim>
				</port>
			</output>
		</layer>
		<layer id="159" name="/_operators.0/Constant_40" type="Const" version="opset1">
			<data element_type="i64" shape="2" offset="46816" size="16" />
			<rt_info>
				<attribute name="precise" version="0" />
			</rt_info>
			<output>
				<port id="0" precision="I64" names="/_operators.0/Constant_40_output_0">
					<dim>2</dim>
				</port>
			</output>
		</layer>
		<layer id="160" name="/_operators.0/Reshape_37" type="Reshape" version="opset1">
			<data special_zero="true" />
			<input>
				<port id="0" precision="FP32">
					<dim>100</dim>
				</port>
				<port id="1" precision="I64">
					<dim>2</dim>
				</port>
			</input>
			<output>
				<port id="2" precision="FP32" names="/_operators.0/Reshape_37_output_0">
					<dim>1</dim>
					<dim>100</dim>
				</port>
			</output>
		</layer>
		<layer id="161" name="/_operators.0/LessOrEqual_7" type="LessEqual" version="opset1">
			<data auto_broadcast="numpy" />
			<input>
				<port id="0" precision="FP32">
					<dim>1</dim>
					<dim>100</dim>
				</port>
				<port id="1" precision="FP32">
					<dim>1</dim>
					<dim>100</dim>
				</port>
			</input>
			<output>
				<port id="2" precision="BOOL" names="/_operators.0/LessOrEqual_7_output_0">
					<dim>1</dim>
					<dim>100</dim>
				</port>
			</output>
		</layer>
		<layer id="162" name="Constant_194" type="Const" version="opset1">
			<data element_type="i64" shape="" offset="46808" size="8" />
			<output>
				<port id="0" precision="I64" />
			</output>
		</layer>
		<layer id="163" name="/_operators.0/Gather_30" type="Gather" version="opset8">
			<data batch_dims="0" />
			<input>
				<port id="0" precision="I64">
					<dim>3100</dim>
				</port>
				<port id="1" precision="I64">
					<dim>100</dim>
				</port>
				<port id="2" precision="I64" />
			</input>
			<output>
				<port id="3" precision="I64" names="/_operators.0/Gather_30_output_0">
					<dim>100</dim>
				</port>
			</output>
		</layer>
		<layer id="164" name="/_operators.0/Constant_41" type="Const" version="opset1">
			<data element_type="i64" shape="2" offset="46816" size="16" />
			<rt_info>
				<attribute name="precise" version="0" />
			</rt_info>
			<output>
				<port id="0" precision="I64" names="/_operators.0/Constant_41_output_0">
					<dim>2</dim>
				</port>
			</output>
		</layer>
		<layer id="165" name="/_operators.0/Reshape_38" type="Reshape" version="opset1">
			<data special_zero="true" />
			<input>
				<port id="0" precision="I64">
					<dim>100</dim>
				</port>
				<port id="1" precision="I64">
					<dim>2</dim>
				</port>
			</input>
			<output>
				<port id="2" precision="I64" names="/_operators.0/Reshape_38_output_0">
					<dim>1</dim>
					<dim>100</dim>
				</port>
			</output>
		</layer>
		<layer id="166" name="Constant_198" type="Const" version="opset1">
			<data element_type="i64" shape="" offset="46808" size="8" />
			<output>
				<port id="0" precision="I64" />
			</output>
		</layer>
		<layer id="167" name="/_operators.0/Gather_31" type="Gather" version="opset8">
			<data batch_dims="0" />
			<input>
				<port id="0" precision="I64">
					<dim>3100</dim>
				</port>
				<port id="1" precision="I64">
					<dim>100</dim>
				</port>
				<port id="2" precision="I64" />
			</input>
			<output>
				<port id="3" precision="I64" names="/_operators.0/Gather_31_output_0">
					<dim>100</dim>
				</port>
			</output>
		</layer>
		<layer id="168" name="/_operators.0/Constant_42" type="Const" version="opset1">
			<data element_type="i64" shape="2" offset="46816" size="16" />
			<rt_info>
				<attribute name="precise" version="0" />
			</rt_info>
			<output>
				<port id="0" precision="I64" names="/_operators.0/Constant_42_output_0">
					<dim>2</dim>
				</port>
			</output>
		</layer>
		<layer id="169" name="/_operators.0/Reshape_39" type="Reshape" version="opset1">
			<data special_zero="true" />
			<input>
				<port id="0" precision="I64">
					<dim>100</dim>
				</port>
				<port id="1" precision="I64">
					<dim>2</dim>
				</port>
			</input>
			<output>
				<port id="2" precision="I64" names="/_operators.0/Reshape_39_output_0">
					<dim>1</dim>
					<dim>100</dim>
				</port>
			</output>
		</layer>
		<layer id="170" name="/_operators.0/Where_8" type="Select" version="opset1">
			<data auto_broadcast="numpy" />
			<input>
				<port id="0" precision="BOOL">
					<dim>1</dim>
					<dim>100</dim>
				</port>
				<port id="1" precision="I64">
					<dim>1</dim>
					<dim>100</dim>
				</port>
				<port id="2" precision="I64">
					<dim>1</dim>
					<dim>100</dim>
				</port>
			</input>
			<output>
				<port id="3" precision="I64" names="/_operators.0/Cast_7_output_0,/_operators.0/Where_8_output_0">
					<dim>1</dim>
					<dim>100</dim>
				</port>
			</output>
		</layer>
		<layer id="171" name="/_operators.0/Add_7" type="Add" version="opset1">
			<data auto_broadcast="numpy" />
			<input>
				<port id="0" precision="I64">
					<dim>1</dim>
					<dim>100</dim>
				</port>
				<port id="1" precision="I64">
					<dim>1</dim>
					<dim>100</dim>
				</port>
			</input>
			<output>
				<port id="2" precision="I64" names="/_operators.0/Add_7_output_0">
					<dim>1</dim>
					<dim>100</dim>
				</port>
			</output>
		</layer>
		<layer id="172" name="Constant_721" type="Const" version="opset1">
			<data element_type="i64" shape="1" offset="46800" size="8" />
			<rt_info>
				<attribute name="precise" version="0" />
			</rt_info>
			<output>
				<port id="0" precision="I64">
					<dim>1</dim>
				</port>
			</output>
		</layer>
		<layer id="173" name="/_operators.0/Reshape_40" type="Reshape" version="opset1">
			<data special_zero="true" />
			<input>
				<port id="0" precision="I64">
					<dim>1</dim>
					<dim>100</dim>
				</port>
				<port id="1" precision="I64">
					<dim>1</dim>
				</port>
			</input>
			<output>
				<port id="2" precision="I64" names="/_operators.0/Reshape_40_output_0">
					<dim>100</dim>
				</port>
			</output>
		</layer>
		<layer id="174" name="Constant_208" type="Const" version="opset1">
			<data element_type="i64" shape="" offset="46808" size="8" />
			<output>
				<port id="0" precision="I64" />
			</output>
		</layer>
		<layer id="175" name="/_operators.0/Gather_32" type="Gather" version="opset8">
			<data batch_dims="0" />
			<input>
				<port id="0" precision="I64">
					<dim>3100</dim>
				</port>
				<port id="1" precision="I64">
					<dim>100</dim>
				</port>
				<port id="2" precision="I64" />
			</input>
			<output>
				<port id="3" precision="I64" names="/_operators.0/Gather_32_output_0">
					<dim>100</dim>
				</port>
			</output>
		</layer>
		<layer id="176" name="/_operators.0/Constant_44" type="Const" version="opset1">
			<data element_type="i64" shape="2" offset="46816" size="16" />
			<rt_info>
				<attribute name="precise" version="0" />
			</rt_info>
			<output>
				<port id="0" precision="I64" names="/_operators.0/Constant_44_output_0">
					<dim>2</dim>
				</port>
			</output>
		</layer>
		<layer id="177" name="/_operators.0/Reshape_41" type="Reshape" version="opset1">
			<data special_zero="true" />
			<input>
				<port id="0" precision="I64">
					<dim>100</dim>
				</port>
				<port id="1" precision="I64">
					<dim>2</dim>
				</port>
			</input>
			<output>
				<port id="2" precision="I64" names="/_operators.0/Reshape_41_output_0">
					<dim>1</dim>
					<dim>100</dim>
				</port>
			</output>
		</layer>
		<layer id="178" name="/_operators.0/GatherElements_8" type="GatherElements" version="opset6">
			<data axis="1" />
			<input>
				<port id="0" precision="FP32">
					<dim>1</dim>
					<dim>7</dim>
				</port>
				<port id="1" precision="I64">
					<dim>1</dim>
					<dim>100</dim>
				</port>
			</input>
			<output>
				<port id="2" precision="FP32" names="/_operators.0/GatherElements_8_output_0">
					<dim>1</dim>
					<dim>100</dim>
				</port>
			</output>
		</layer>
		<layer id="179" name="Constant_213" type="Const" version="opset1">
			<data element_type="i64" shape="" offset="46808" size="8" />
			<output>
				<port id="0" precision="I64" />
			</output>
		</layer>
		<layer id="180" name="/_operators.0/Gather_33" type="Gather" version="opset8">
			<data batch_dims="0" />
			<input>
				<port id="0" precision="FP32">
					<dim>3100</dim>
				</port>
				<port id="1" precision="I64">
					<dim>100</dim>
				</port>
				<port id="2" precision="I64" />
			</input>
			<output>
				<port id="3" precision="FP32" names="/_operators.0/Gather_33_output_0">
					<dim>100</dim>
				</port>
			</output>
		</layer>
		<layer id="181" name="/_operators.0/Constant_45" type="Const" version="opset1">
			<data element_type="i64" shape="2" offset="46816" size="16" />
			<rt_info>
				<attribute name="precise" version="0" />
			</rt_info>
			<output>
				<port id="0" precision="I64" names="/_operators.0/Constant_45_output_0">
					<dim>2</dim>
				</port>
			</output>
		</layer>
		<layer id="182" name="/_operators.0/Reshape_42" type="Reshape" version="opset1">
			<data special_zero="true" />
			<input>
				<port id="0" precision="FP32">
					<dim>100</dim>
				</port>
				<port id="1" precision="I64">
					<dim>2</dim>
				</port>
			</input>
			<output>
				<port id="2" precision="FP32" names="/_operators.0/Reshape_42_output_0">
					<dim>1</dim>
					<dim>100</dim>
				</port>
			</output>
		</layer>
		<layer id="183" name="/_operators.0/LessOrEqual_8" type="LessEqual" version="opset1">
			<data auto_broadcast="numpy" />
			<input>
				<port id="0" precision="FP32">
					<dim>1</dim>
					<dim>100</dim>
				</port>
				<port id="1" precision="FP32">
					<dim>1</dim>
					<dim>100</dim>
				</port>
			</input>
			<output>
				<port id="2" precision="BOOL" names="/_operators.0/LessOrEqual_8_output_0">
					<dim>1</dim>
					<dim>100</dim>
				</port>
			</output>
		</layer>
		<layer id="184" name="Constant_217" type="Const" version="opset1">
			<data element_type="i64" shape="" offset="46808" size="8" />
			<output>
				<port id="0" precision="I64" />
			</output>
		</layer>
		<layer id="185" name="/_operators.0/Gather_34" type="Gather" version="opset8">
			<data batch_dims="0" />
			<input>
				<port id="0" precision="I64">
					<dim>3100</dim>
				</port>
				<port id="1" precision="I64">
					<dim>100</dim>
				</port>
				<port id="2" precision="I64" />
			</input>
			<output>
				<port id="3" precision="I64" names="/_operators.0/Gather_34_output_0">
					<dim>100</dim>
				</port>
			</output>
		</layer>
		<layer id="186" name="/_operators.0/Constant_46" type="Const" version="opset1">
			<data element_type="i64" shape="2" offset="46816" size="16" />
			<rt_info>
				<attribute name="precise" version="0" />
			</rt_info>
			<output>
				<port id="0" precision="I64" names="/_operators.0/Constant_46_output_0">
					<dim>2</dim>
				</port>
			</output>
		</layer>
		<layer id="187" name="/_operators.0/Reshape_43" type="Reshape" version="opset1">
			<data special_zero="true" />
			<input>
				<port id="0" precision="I64">
					<dim>100</dim>
				</port>
				<port id="1" precision="I64">
					<dim>2</dim>
				</port>
			</input>
			<output>
				<port id="2" precision="I64" names="/_operators.0/Reshape_43_output_0">
					<dim>1</dim>
					<dim>100</dim>
				</port>
			</output>
		</layer>
		<layer id="188" name="Constant_221" type="Const" version="opset1">
			<data element_type="i64" shape="" offset="46808" size="8" />
			<output>
				<port id="0" precision="I64" />
			</output>
		</layer>
		<layer id="189" name="/_operators.0/Gather_35" type="Gather" version="opset8">
			<data batch_dims="0" />
			<input>
				<port id="0" precision="I64">
					<dim>3100</dim>
				</port>
				<port id="1" precision="I64">
					<dim>100</dim>
				</port>
				<port id="2" precision="I64" />
			</input>
			<output>
				<port id="3" precision="I64" names="/_operators.0/Gather_35_output_0">
					<dim>100</dim>
				</port>
			</output>
		</layer>
		<layer id="190" name="/_operators.0/Constant_47" type="Const" version="opset1">
			<data element_type="i64" shape="2" offset="46816" size="16" />
			<rt_info>
				<attribute name="precise" version="0" />
			</rt_info>
			<output>
				<port id="0" precision="I64" names="/_operators.0/Constant_47_output_0">
					<dim>2</dim>
				</port>
			</output>
		</layer>
		<layer id="191" name="/_operators.0/Reshape_44" type="Reshape" version="opset1">
			<data special_zero="true" />
			<input>
				<port id="0" precision="I64">
					<dim>100</dim>
				</port>
				<port id="1" precision="I64">
					<dim>2</dim>
				</port>
			</input>
			<output>
				<port id="2" precision="I64" names="/_operators.0/Reshape_44_output_0">
					<dim>1</dim>
					<dim>100</dim>
				</port>
			</output>
		</layer>
		<layer id="192" name="/_operators.0/Where_9" type="Select" version="opset1">
			<data auto_broadcast="numpy" />
			<input>
				<port id="0" precision="BOOL">
					<dim>1</dim>
					<dim>100</dim>
				</port>
				<port id="1" precision="I64">
					<dim>1</dim>
					<dim>100</dim>
				</port>
				<port id="2" precision="I64">
					<dim>1</dim>
					<dim>100</dim>
				</port>
			</input>
			<output>
				<port id="3" precision="I64" names="/_operators.0/Cast_8_output_0,/_operators.0/Where_9_output_0">
					<dim>1</dim>
					<dim>100</dim>
				</port>
			</output>
		</layer>
		<layer id="193" name="/_operators.0/Add_8" type="Add" version="opset1">
			<data auto_broadcast="numpy" />
			<input>
				<port id="0" precision="I64">
					<dim>1</dim>
					<dim>100</dim>
				</port>
				<port id="1" precision="I64">
					<dim>1</dim>
					<dim>100</dim>
				</port>
			</input>
			<output>
				<port id="2" precision="I64" names="/_operators.0/Add_8_output_0">
					<dim>1</dim>
					<dim>100</dim>
				</port>
			</output>
		</layer>
		<layer id="194" name="Constant_722" type="Const" version="opset1">
			<data element_type="i64" shape="1" offset="46800" size="8" />
			<rt_info>
				<attribute name="precise" version="0" />
			</rt_info>
			<output>
				<port id="0" precision="I64">
					<dim>1</dim>
				</port>
			</output>
		</layer>
		<layer id="195" name="/_operators.0/Reshape_45" type="Reshape" version="opset1">
			<data special_zero="true" />
			<input>
				<port id="0" precision="I64">
					<dim>1</dim>
					<dim>100</dim>
				</port>
				<port id="1" precision="I64">
					<dim>1</dim>
				</port>
			</input>
			<output>
				<port id="2" precision="I64" names="/_operators.0/Reshape_45_output_0">
					<dim>100</dim>
				</port>
			</output>
		</layer>
		<layer id="196" name="Constant_231" type="Const" version="opset1">
			<data element_type="i64" shape="" offset="46808" size="8" />
			<output>
				<port id="0" precision="I64" />
			</output>
		</layer>
		<layer id="197" name="/_operators.0/Gather_36" type="Gather" version="opset8">
			<data batch_dims="0" />
			<input>
				<port id="0" precision="I64">
					<dim>3100</dim>
				</port>
				<port id="1" precision="I64">
					<dim>100</dim>
				</port>
				<port id="2" precision="I64" />
			</input>
			<output>
				<port id="3" precision="I64" names="/_operators.0/Gather_36_output_0">
					<dim>100</dim>
				</port>
			</output>
		</layer>
		<layer id="198" name="/_operators.0/Constant_49" type="Const" version="opset1">
			<data element_type="i64" shape="2" offset="46816" size="16" />
			<rt_info>
				<attribute name="precise" version="0" />
			</rt_info>
			<output>
				<port id="0" precision="I64" names="/_operators.0/Constant_49_output_0">
					<dim>2</dim>
				</port>
			</output>
		</layer>
		<layer id="199" name="/_operators.0/Reshape_46" type="Reshape" version="opset1">
			<data special_zero="true" />
			<input>
				<port id="0" precision="I64">
					<dim>100</dim>
				</port>
				<port id="1" precision="I64">
					<dim>2</dim>
				</port>
			</input>
			<output>
				<port id="2" precision="I64" names="/_operators.0/Reshape_46_output_0">
					<dim>1</dim>
					<dim>100</dim>
				</port>
			</output>
		</layer>
		<layer id="200" name="/_operators.0/GatherElements_9" type="GatherElements" version="opset6">
			<data axis="1" />
			<input>
				<port id="0" precision="FP32">
					<dim>1</dim>
					<dim>7</dim>
				</port>
				<port id="1" precision="I64">
					<dim>1</dim>
					<dim>100</dim>
				</port>
			</input>
			<output>
				<port id="2" precision="FP32" names="/_operators.0/GatherElements_9_output_0">
					<dim>1</dim>
					<dim>100</dim>
				</port>
			</output>
		</layer>
		<layer id="201" name="Constant_236" type="Const" version="opset1">
			<data element_type="i64" shape="" offset="46808" size="8" />
			<output>
				<port id="0" precision="I64" />
			</output>
		</layer>
		<layer id="202" name="/_operators.0/Gather_37" type="Gather" version="opset8">
			<data batch_dims="0" />
			<input>
				<port id="0" precision="FP32">
					<dim>3100</dim>
				</port>
				<port id="1" precision="I64">
					<dim>100</dim>
				</port>
				<port id="2" precision="I64" />
			</input>
			<output>
				<port id="3" precision="FP32" names="/_operators.0/Gather_37_output_0">
					<dim>100</dim>
				</port>
			</output>
		</layer>
		<layer id="203" name="/_operators.0/Constant_50" type="Const" version="opset1">
			<data element_type="i64" shape="2" offset="46816" size="16" />
			<rt_info>
				<attribute name="precise" version="0" />
			</rt_info>
			<output>
				<port id="0" precision="I64" names="/_operators.0/Constant_50_output_0">
					<dim>2</dim>
				</port>
			</output>
		</layer>
		<layer id="204" name="/_operators.0/Reshape_47" type="Reshape" version="opset1">
			<data special_zero="true" />
			<input>
				<port id="0" precision="FP32">
					<dim>100</dim>
				</port>
				<port id="1" precision="I64">
					<dim>2</dim>
				</port>
			</input>
			<output>
				<port id="2" precision="FP32" names="/_operators.0/Reshape_47_output_0">
					<dim>1</dim>
					<dim>100</dim>
				</port>
			</output>
		</layer>
		<layer id="205" name="/_operators.0/LessOrEqual_9" type="LessEqual" version="opset1">
			<data auto_broadcast="numpy" />
			<input>
				<port id="0" precision="FP32">
					<dim>1</dim>
					<dim>100</dim>
				</port>
				<port id="1" precision="FP32">
					<dim>1</dim>
					<dim>100</dim>
				</port>
			</input>
			<output>
				<port id="2" precision="BOOL" names="/_operators.0/LessOrEqual_9_output_0">
					<dim>1</dim>
					<dim>100</dim>
				</port>
			</output>
		</layer>
		<layer id="206" name="Constant_240" type="Const" version="opset1">
			<data element_type="i64" shape="" offset="46808" size="8" />
			<output>
				<port id="0" precision="I64" />
			</output>
		</layer>
		<layer id="207" name="/_operators.0/Gather_38" type="Gather" version="opset8">
			<data batch_dims="0" />
			<input>
				<port id="0" precision="I64">
					<dim>3100</dim>
				</port>
				<port id="1" precision="I64">
					<dim>100</dim>
				</port>
				<port id="2" precision="I64" />
			</input>
			<output>
				<port id="3" precision="I64" names="/_operators.0/Gather_38_output_0">
					<dim>100</dim>
				</port>
			</output>
		</layer>
		<layer id="208" name="/_operators.0/Constant_51" type="Const" version="opset1">
			<data element_type="i64" shape="2" offset="46816" size="16" />
			<rt_info>
				<attribute name="precise" version="0" />
			</rt_info>
			<output>
				<port id="0" precision="I64" names="/_operators.0/Constant_51_output_0">
					<dim>2</dim>
				</port>
			</output>
		</layer>
		<layer id="209" name="/_operators.0/Reshape_48" type="Reshape" version="opset1">
			<data special_zero="true" />
			<input>
				<port id="0" precision="I64">
					<dim>100</dim>
				</port>
				<port id="1" precision="I64">
					<dim>2</dim>
				</port>
			</input>
			<output>
				<port id="2" precision="I64" names="/_operators.0/Reshape_48_output_0">
					<dim>1</dim>
					<dim>100</dim>
				</port>
			</output>
		</layer>
		<layer id="210" name="Constant_244" type="Const" version="opset1">
			<data element_type="i64" shape="" offset="46808" size="8" />
			<output>
				<port id="0" precision="I64" />
			</output>
		</layer>
		<layer id="211" name="/_operators.0/Gather_39" type="Gather" version="opset8">
			<data batch_dims="0" />
			<input>
				<port id="0" precision="I64">
					<dim>3100</dim>
				</port>
				<port id="1" precision="I64">
					<dim>100</dim>
				</port>
				<port id="2" precision="I64" />
			</input>
			<output>
				<port id="3" precision="I64" names="/_operators.0/Gather_39_output_0">
					<dim>100</dim>
				</port>
			</output>
		</layer>
		<layer id="212" name="/_operators.0/Constant_52" type="Const" version="opset1">
			<data element_type="i64" shape="2" offset="46816" size="16" />
			<rt_info>
				<attribute name="precise" version="0" />
			</rt_info>
			<output>
				<port id="0" precision="I64" names="/_operators.0/Constant_52_output_0">
					<dim>2</dim>
				</port>
			</output>
		</layer>
		<layer id="213" name="/_operators.0/Reshape_49" type="Reshape" version="opset1">
			<data special_zero="true" />
			<input>
				<port id="0" precision="I64">
					<dim>100</dim>
				</port>
				<port id="1" precision="I64">
					<dim>2</dim>
				</port>
			</input>
			<output>
				<port id="2" precision="I64" names="/_operators.0/Reshape_49_output_0">
					<dim>1</dim>
					<dim>100</dim>
				</port>
			</output>
		</layer>
		<layer id="214" name="/_operators.0/Where_10" type="Select" version="opset1">
			<data auto_broadcast="numpy" />
			<input>
				<port id="0" precision="BOOL">
					<dim>1</dim>
					<dim>100</dim>
				</port>
				<port id="1" precision="I64">
					<dim>1</dim>
					<dim>100</dim>
				</port>
				<port id="2" precision="I64">
					<dim>1</dim>
					<dim>100</dim>
				</port>
			</input>
			<output>
				<port id="3" precision="I64" names="/_operators.0/Cast_9_output_0,/_operators.0/Where_10_output_0">
					<dim>1</dim>
					<dim>100</dim>
				</port>
			</output>
		</layer>
		<layer id="215" name="/_operators.0/Add_9" type="Add" version="opset1">
			<data auto_broadcast="numpy" />
			<input>
				<port id="0" precision="I64">
					<dim>1</dim>
					<dim>100</dim>
				</port>
				<port id="1" precision="I64">
					<dim>1</dim>
					<dim>100</dim>
				</port>
			</input>
			<output>
				<port id="2" precision="I64" names="/_operators.0/Add_9_output_0">
					<dim>1</dim>
					<dim>100</dim>
				</port>
			</output>
		</layer>
		<layer id="216" name="Constant_723" type="Const" version="opset1">
			<data element_type="i64" shape="1" offset="46800" size="8" />
			<rt_info>
				<attribute name="precise" version="0" />
			</rt_info>
			<output>
				<port id="0" precision="I64">
					<dim>1</dim>
				</port>
			</output>
		</layer>
		<layer id="217" name="/_operators.0/Reshape_50" type="Reshape" version="opset1">
			<data special_zero="true" />
			<input>
				<port id="0" precision="I64">
					<dim>1</dim>
					<dim>100</dim>
				</port>
				<port id="1" precision="I64">
					<dim>1</dim>
				</port>
			</input>
			<output>
				<port id="2" precision="I64" names="/_operators.0/Reshape_50_output_0">
					<dim>100</dim>
				</port>
			</output>
		</layer>
		<layer id="218" name="Constant_254" type="Const" version="opset1">
			<data element_type="i64" shape="" offset="46808" size="8" />
			<output>
				<port id="0" precision="I64" />
			</output>
		</layer>
		<layer id="219" name="/_operators.0/Gather_40" type="Gather" version="opset8">
			<data batch_dims="0" />
			<input>
				<port id="0" precision="I64">
					<dim>3100</dim>
				</port>
				<port id="1" precision="I64">
					<dim>100</dim>
				</port>
				<port id="2" precision="I64" />
			</input>
			<output>
				<port id="3" precision="I64" names="/_operators.0/Gather_40_output_0">
					<dim>100</dim>
				</port>
			</output>
		</layer>
		<layer id="220" name="/_operators.0/Constant_54" type="Const" version="opset1">
			<data element_type="i64" shape="2" offset="46816" size="16" />
			<rt_info>
				<attribute name="precise" version="0" />
			</rt_info>
			<output>
				<port id="0" precision="I64" names="/_operators.0/Constant_54_output_0">
					<dim>2</dim>
				</port>
			</output>
		</layer>
		<layer id="221" name="/_operators.0/Reshape_51" type="Reshape" version="opset1">
			<data special_zero="true" />
			<input>
				<port id="0" precision="I64">
					<dim>100</dim>
				</port>
				<port id="1" precision="I64">
					<dim>2</dim>
				</port>
			</input>
			<output>
				<port id="2" precision="I64" names="/_operators.0/Reshape_51_output_0">
					<dim>1</dim>
					<dim>100</dim>
				</port>
			</output>
		</layer>
		<layer id="222" name="/_operators.0/GatherElements_10" type="GatherElements" version="opset6">
			<data axis="1" />
			<input>
				<port id="0" precision="FP32">
					<dim>1</dim>
					<dim>7</dim>
				</port>
				<port id="1" precision="I64">
					<dim>1</dim>
					<dim>100</dim>
				</port>
			</input>
			<output>
				<port id="2" precision="FP32" names="/_operators.0/GatherElements_10_output_0">
					<dim>1</dim>
					<dim>100</dim>
				</port>
			</output>
		</layer>
		<layer id="223" name="Constant_259" type="Const" version="opset1">
			<data element_type="i64" shape="" offset="46808" size="8" />
			<output>
				<port id="0" precision="I64" />
			</output>
		</layer>
		<layer id="224" name="/_operators.0/Gather_41" type="Gather" version="opset8">
			<data batch_dims="0" />
			<input>
				<port id="0" precision="FP32">
					<dim>3100</dim>
				</port>
				<port id="1" precision="I64">
					<dim>100</dim>
				</port>
				<port id="2" precision="I64" />
			</input>
			<output>
				<port id="3" precision="FP32" names="/_operators.0/Gather_41_output_0">
					<dim>100</dim>
				</port>
			</output>
		</layer>
		<layer id="225" name="/_operators.0/Constant_55" type="Const" version="opset1">
			<data element_type="i64" shape="2" offset="46816" size="16" />
			<rt_info>
				<attribute name="precise" version="0" />
			</rt_info>
			<output>
				<port id="0" precision="I64" names="/_operators.0/Constant_55_output_0">
					<dim>2</dim>
				</port>
			</output>
		</layer>
		<layer id="226" name="/_operators.0/Reshape_52" type="Reshape" version="opset1">
			<data special_zero="true" />
			<input>
				<port id="0" precision="FP32">
					<dim>100</dim>
				</port>
				<port id="1" precision="I64">
					<dim>2</dim>
				</port>
			</input>
			<output>
				<port id="2" precision="FP32" names="/_operators.0/Reshape_52_output_0">
					<dim>1</dim>
					<dim>100</dim>
				</port>
			</output>
		</layer>
		<layer id="227" name="/_operators.0/LessOrEqual_10" type="LessEqual" version="opset1">
			<data auto_broadcast="numpy" />
			<input>
				<port id="0" precision="FP32">
					<dim>1</dim>
					<dim>100</dim>
				</port>
				<port id="1" precision="FP32">
					<dim>1</dim>
					<dim>100</dim>
				</port>
			</input>
			<output>
				<port id="2" precision="BOOL" names="/_operators.0/LessOrEqual_10_output_0">
					<dim>1</dim>
					<dim>100</dim>
				</port>
			</output>
		</layer>
		<layer id="228" name="Constant_263" type="Const" version="opset1">
			<data element_type="i64" shape="" offset="46808" size="8" />
			<output>
				<port id="0" precision="I64" />
			</output>
		</layer>
		<layer id="229" name="/_operators.0/Gather_42" type="Gather" version="opset8">
			<data batch_dims="0" />
			<input>
				<port id="0" precision="I64">
					<dim>3100</dim>
				</port>
				<port id="1" precision="I64">
					<dim>100</dim>
				</port>
				<port id="2" precision="I64" />
			</input>
			<output>
				<port id="3" precision="I64" names="/_operators.0/Gather_42_output_0">
					<dim>100</dim>
				</port>
			</output>
		</layer>
		<layer id="230" name="/_operators.0/Constant_56" type="Const" version="opset1">
			<data element_type="i64" shape="2" offset="46816" size="16" />
			<rt_info>
				<attribute name="precise" version="0" />
			</rt_info>
			<output>
				<port id="0" precision="I64" names="/_operators.0/Constant_56_output_0">
					<dim>2</dim>
				</port>
			</output>
		</layer>
		<layer id="231" name="/_operators.0/Reshape_53" type="Reshape" version="opset1">
			<data special_zero="true" />
			<input>
				<port id="0" precision="I64">
					<dim>100</dim>
				</port>
				<port id="1" precision="I64">
					<dim>2</dim>
				</port>
			</input>
			<output>
				<port id="2" precision="I64" names="/_operators.0/Reshape_53_output_0">
					<dim>1</dim>
					<dim>100</dim>
				</port>
			</output>
		</layer>
		<layer id="232" name="Constant_267" type="Const" version="opset1">
			<data element_type="i64" shape="" offset="46808" size="8" />
			<output>
				<port id="0" precision="I64" />
			</output>
		</layer>
		<layer id="233" name="/_operators.0/Gather_43" type="Gather" version="opset8">
			<data batch_dims="0" />
			<input>
				<port id="0" precision="I64">
					<dim>3100</dim>
				</port>
				<port id="1" precision="I64">
					<dim>100</dim>
				</port>
				<port id="2" precision="I64" />
			</input>
			<output>
				<port id="3" precision="I64" names="/_operators.0/Gather_43_output_0">
					<dim>100</dim>
				</port>
			</output>
		</layer>
		<layer id="234" name="/_operators.0/Constant_57" type="Const" version="opset1">
			<data element_type="i64" shape="2" offset="46816" size="16" />
			<rt_info>
				<attribute name="precise" version="0" />
			</rt_info>
			<output>
				<port id="0" precision="I64" names="/_operators.0/Constant_57_output_0">
					<dim>2</dim>
				</port>
			</output>
		</layer>
		<layer id="235" name="/_operators.0/Reshape_54" type="Reshape" version="opset1">
			<data special_zero="true" />
			<input>
				<port id="0" precision="I64">
					<dim>100</dim>
				</port>
				<port id="1" precision="I64">
					<dim>2</dim>
				</port>
			</input>
			<output>
				<port id="2" precision="I64" names="/_operators.0/Reshape_54_output_0">
					<dim>1</dim>
					<dim>100</dim>
				</port>
			</output>
		</layer>
		<layer id="236" name="/_operators.0/Where_11" type="Select" version="opset1">
			<data auto_broadcast="numpy" />
			<input>
				<port id="0" precision="BOOL">
					<dim>1</dim>
					<dim>100</dim>
				</port>
				<port id="1" precision="I64">
					<dim>1</dim>
					<dim>100</dim>
				</port>
				<port id="2" precision="I64">
					<dim>1</dim>
					<dim>100</dim>
				</port>
			</input>
			<output>
				<port id="3" precision="I64" names="/_operators.0/Cast_10_output_0,/_operators.0/Where_11_output_0">
					<dim>1</dim>
					<dim>100</dim>
				</port>
			</output>
		</layer>
		<layer id="237" name="/_operators.0/Add_10" type="Add" version="opset1">
			<data auto_broadcast="numpy" />
			<input>
				<port id="0" precision="I64">
					<dim>1</dim>
					<dim>100</dim>
				</port>
				<port id="1" precision="I64">
					<dim>1</dim>
					<dim>100</dim>
				</port>
			</input>
			<output>
				<port id="2" precision="I64" names="/_operators.0/Add_10_output_0">
					<dim>1</dim>
					<dim>100</dim>
				</port>
			</output>
		</layer>
		<layer id="238" name="Constant_724" type="Const" version="opset1">
			<data element_type="i64" shape="1" offset="46800" size="8" />
			<rt_info>
				<attribute name="precise" version="0" />
			</rt_info>
			<output>
				<port id="0" precision="I64">
					<dim>1</dim>
				</port>
			</output>
		</layer>
		<layer id="239" name="/_operators.0/Reshape_55" type="Reshape" version="opset1">
			<data special_zero="true" />
			<input>
				<port id="0" precision="I64">
					<dim>1</dim>
					<dim>100</dim>
				</port>
				<port id="1" precision="I64">
					<dim>1</dim>
				</port>
			</input>
			<output>
				<port id="2" precision="I64" names="/_operators.0/Reshape_55_output_0">
					<dim>100</dim>
				</port>
			</output>
		</layer>
		<layer id="240" name="Constant_278" type="Const" version="opset1">
			<data element_type="i64" shape="" offset="46808" size="8" />
			<output>
				<port id="0" precision="I64" />
			</output>
		</layer>
		<layer id="241" name="/_operators.0/Gather_44" type="Gather" version="opset8">
			<data batch_dims="0" />
			<input>
				<port id="0" precision="FP32">
					<dim>3100</dim>
					<dim>3</dim>
				</port>
				<port id="1" precision="I64">
					<dim>100</dim>
				</port>
				<port id="2" precision="I64" />
			</input>
			<output>
				<port id="3" precision="FP32" names="/_operators.0/Gather_44_output_0">
					<dim>100</dim>
					<dim>3</dim>
				</port>
			</output>
		</layer>
		<layer id="242" name="Constant_2455" type="Const" version="opset1">
			<data element_type="i64" shape="1" offset="46808" size="8" />
			<output>
				<port id="0" precision="I64">
					<dim>1</dim>
				</port>
			</output>
		</layer>
		<layer id="243" name="onnx::ArgMax_235" type="ReduceSum" version="opset1">
			<data keep_dims="true" />
			<input>
				<port id="0" precision="FP32">
					<dim>100</dim>
					<dim>3</dim>
				</port>
				<port id="1" precision="I64">
					<dim>1</dim>
				</port>
			</input>
			<output>
				<port id="2" precision="FP32" names="onnx::ArgMax_235">
					<dim>1</dim>
					<dim>3</dim>
				</port>
			</output>
		</layer>
		<layer id="244" name="Constant_284" type="Const" version="opset1">
			<data element_type="i64" shape="" offset="102632" size="8" />
			<rt_info>
				<attribute name="precise" version="0" />
			</rt_info>
			<output>
				<port id="0" precision="I64" />
			</output>
		</layer>
		<layer id="245" name="TopK_285" type="TopK" version="opset11">
			<data axis="1" mode="max" sort="value" index_element_type="i64" stable="true" />
			<input>
				<port id="0" precision="FP32">
					<dim>1</dim>
					<dim>3</dim>
				</port>
				<port id="1" precision="I64" />
			</input>
			<output>
				<port id="2" precision="FP32">
					<dim>1</dim>
					<dim>1</dim>
				</port>
				<port id="3" precision="I64">
					<dim>1</dim>
					<dim>1</dim>
				</port>
			</output>
		</layer>
		<layer id="246" name="Constant_286" type="Const" version="opset1">
			<data element_type="u64" shape="" offset="102632" size="8" />
			<output>
				<port id="0" precision="U64" />
			</output>
		</layer>
		<layer id="247" name="output" type="Squeeze" version="opset1">
			<input>
				<port id="0" precision="I64">
					<dim>1</dim>
					<dim>1</dim>
				</port>
				<port id="1" precision="U64" />
			</input>
			<output>
				<port id="2" precision="I64" names="output">
					<dim>1</dim>
				</port>
			</output>
		</layer>
		<layer id="248" name="output/sink_port_0" type="Result" version="opset1" output_names="output">
			<input>
				<port id="0" precision="I64">
					<dim>1</dim>
				</port>
			</input>
		</layer>
		<layer id="249" name="onnx::ArgMax_235/sink_port_0" type="Result" version="opset1" output_names="onnx::ArgMax_235">
			<input>
				<port id="0" precision="FP32">
					<dim>1</dim>
					<dim>3</dim>
				</port>
			</input>
		</layer>
	</layers>
	<edges>
		<edge from-layer="0" from-port="0" to-layer="5" to-port="0" />
		<edge from-layer="0" from-port="0" to-layer="46" to-port="0" />
		<edge from-layer="0" from-port="0" to-layer="68" to-port="0" />
		<edge from-layer="0" from-port="0" to-layer="90" to-port="0" />
		<edge from-layer="0" from-port="0" to-layer="112" to-port="0" />
		<edge from-layer="0" from-port="0" to-layer="222" to-port="0" />
		<edge from-layer="0" from-port="0" to-layer="134" to-port="0" />
		<edge from-layer="0" from-port="0" to-layer="20" to-port="0" />
		<edge from-layer="0" from-port="0" to-layer="200" to-port="0" />
		<edge from-layer="0" from-port="0" to-layer="156" to-port="0" />
		<edge from-layer="0" from-port="0" to-layer="178" to-port="0" />
		<edge from-layer="1" from-port="0" to-layer="2" to-port="0" />
		<edge from-layer="2" from-port="1" to-layer="241" to-port="0" />
		<edge from-layer="3" from-port="0" to-layer="17" to-port="0" />
		<edge from-layer="3" from-port="0" to-layer="175" to-port="0" />
		<edge from-layer="3" from-port="0" to-layer="197" to-port="0" />
		<edge from-layer="3" from-port="0" to-layer="153" to-port="0" />
		<edge from-layer="3" from-port="0" to-layer="219" to-port="0" />
		<edge from-layer="3" from-port="0" to-layer="131" to-port="0" />
		<edge from-layer="3" from-port="0" to-layer="109" to-port="0" />
		<edge from-layer="3" from-port="0" to-layer="87" to-port="0" />
		<edge from-layer="3" from-port="0" to-layer="65" to-port="0" />
		<edge from-layer="3" from-port="0" to-layer="43" to-port="0" />
		<edge from-layer="4" from-port="0" to-layer="5" to-port="1" />
		<edge from-layer="5" from-port="2" to-layer="8" to-port="0" />
		<edge from-layer="6" from-port="0" to-layer="7" to-port="0" />
		<edge from-layer="7" from-port="1" to-layer="8" to-port="1" />
		<edge from-layer="8" from-port="2" to-layer="11" to-port="0" />
		<edge from-layer="9" from-port="0" to-layer="11" to-port="1" />
		<edge from-layer="10" from-port="0" to-layer="11" to-port="2" />
		<edge from-layer="11" from-port="3" to-layer="13" to-port="0" />
		<edge from-layer="12" from-port="0" to-layer="149" to-port="1" />
		<edge from-layer="12" from-port="0" to-layer="13" to-port="1" />
		<edge from-layer="12" from-port="0" to-layer="127" to-port="1" />
		<edge from-layer="12" from-port="0" to-layer="61" to-port="1" />
		<edge from-layer="12" from-port="0" to-layer="83" to-port="1" />
		<edge from-layer="12" from-port="0" to-layer="237" to-port="1" />
		<edge from-layer="12" from-port="0" to-layer="39" to-port="1" />
		<edge from-layer="12" from-port="0" to-layer="105" to-port="1" />
		<edge from-layer="12" from-port="0" to-layer="171" to-port="1" />
		<edge from-layer="12" from-port="0" to-layer="193" to-port="1" />
		<edge from-layer="12" from-port="0" to-layer="215" to-port="1" />
		<edge from-layer="13" from-port="2" to-layer="15" to-port="0" />
		<edge from-layer="14" from-port="0" to-layer="15" to-port="1" />
		<edge from-layer="15" from-port="2" to-layer="35" to-port="1" />
		<edge from-layer="15" from-port="2" to-layer="24" to-port="1" />
		<edge from-layer="15" from-port="2" to-layer="17" to-port="1" />
		<edge from-layer="15" from-port="2" to-layer="30" to-port="1" />
		<edge from-layer="16" from-port="0" to-layer="17" to-port="2" />
		<edge from-layer="17" from-port="3" to-layer="19" to-port="0" />
		<edge from-layer="18" from-port="0" to-layer="19" to-port="1" />
		<edge from-layer="19" from-port="2" to-layer="20" to-port="1" />
		<edge from-layer="20" from-port="2" to-layer="27" to-port="0" />
		<edge from-layer="21" from-port="0" to-layer="22" to-port="0" />
		<edge from-layer="22" from-port="1" to-layer="114" to-port="0" />
		<edge from-layer="22" from-port="1" to-layer="202" to-port="0" />
		<edge from-layer="22" from-port="1" to-layer="48" to-port="0" />
		<edge from-layer="22" from-port="1" to-layer="136" to-port="0" />
		<edge from-layer="22" from-port="1" to-layer="180" to-port="0" />
		<edge from-layer="22" from-port="1" to-layer="92" to-port="0" />
		<edge from-layer="22" from-port="1" to-layer="224" to-port="0" />
		<edge from-layer="22" from-port="1" to-layer="24" to-port="0" />
		<edge from-layer="22" from-port="1" to-layer="158" to-port="0" />
		<edge from-layer="22" from-port="1" to-layer="70" to-port="0" />
		<edge from-layer="23" from-port="0" to-layer="24" to-port="2" />
		<edge from-layer="24" from-port="3" to-layer="26" to-port="0" />
		<edge from-layer="25" from-port="0" to-layer="26" to-port="1" />
		<edge from-layer="26" from-port="2" to-layer="27" to-port="1" />
		<edge from-layer="27" from-port="2" to-layer="38" to-port="0" />
		<edge from-layer="28" from-port="0" to-layer="207" to-port="0" />
		<edge from-layer="28" from-port="0" to-layer="97" to-port="0" />
		<edge from-layer="28" from-port="0" to-layer="53" to-port="0" />
		<edge from-layer="28" from-port="0" to-layer="141" to-port="0" />
		<edge from-layer="28" from-port="0" to-layer="185" to-port="0" />
		<edge from-layer="28" from-port="0" to-layer="229" to-port="0" />
		<edge from-layer="28" from-port="0" to-layer="163" to-port="0" />
		<edge from-layer="28" from-port="0" to-layer="119" to-port="0" />
		<edge from-layer="28" from-port="0" to-layer="30" to-port="0" />
		<edge from-layer="28" from-port="0" to-layer="75" to-port="0" />
		<edge from-layer="29" from-port="0" to-layer="30" to-port="2" />
		<edge from-layer="30" from-port="3" to-layer="32" to-port="0" />
		<edge from-layer="31" from-port="0" to-layer="32" to-port="1" />
		<edge from-layer="32" from-port="2" to-layer="38" to-port="1" />
		<edge from-layer="33" from-port="0" to-layer="145" to-port="0" />
		<edge from-layer="33" from-port="0" to-layer="101" to-port="0" />
		<edge from-layer="33" from-port="0" to-layer="35" to-port="0" />
		<edge from-layer="33" from-port="0" to-layer="123" to-port="0" />
		<edge from-layer="33" from-port="0" to-layer="211" to-port="0" />
		<edge from-layer="33" from-port="0" to-layer="189" to-port="0" />
		<edge from-layer="33" from-port="0" to-layer="79" to-port="0" />
		<edge from-layer="33" from-port="0" to-layer="57" to-port="0" />
		<edge from-layer="33" from-port="0" to-layer="233" to-port="0" />
		<edge from-layer="33" from-port="0" to-layer="167" to-port="0" />
		<edge from-layer="34" from-port="0" to-layer="35" to-port="2" />
		<edge from-layer="35" from-port="3" to-layer="37" to-port="0" />
		<edge from-layer="36" from-port="0" to-layer="37" to-port="1" />
		<edge from-layer="37" from-port="2" to-layer="38" to-port="2" />
		<edge from-layer="38" from-port="3" to-layer="39" to-port="0" />
		<edge from-layer="39" from-port="2" to-layer="41" to-port="0" />
		<edge from-layer="40" from-port="0" to-layer="41" to-port="1" />
		<edge from-layer="41" from-port="2" to-layer="48" to-port="1" />
		<edge from-layer="41" from-port="2" to-layer="53" to-port="1" />
		<edge from-layer="41" from-port="2" to-layer="43" to-port="1" />
		<edge from-layer="41" from-port="2" to-layer="57" to-port="1" />
		<edge from-layer="42" from-port="0" to-layer="43" to-port="2" />
		<edge from-layer="43" from-port="3" to-layer="45" to-port="0" />
		<edge from-layer="44" from-port="0" to-layer="45" to-port="1" />
		<edge from-layer="45" from-port="2" to-layer="46" to-port="1" />
		<edge from-layer="46" from-port="2" to-layer="51" to-port="0" />
		<edge from-layer="47" from-port="0" to-layer="48" to-port="2" />
		<edge from-layer="48" from-port="3" to-layer="50" to-port="0" />
		<edge from-layer="49" from-port="0" to-layer="50" to-port="1" />
		<edge from-layer="50" from-port="2" to-layer="51" to-port="1" />
		<edge from-layer="51" from-port="2" to-layer="60" to-port="0" />
		<edge from-layer="52" from-port="0" to-layer="53" to-port="2" />
		<edge from-layer="53" from-port="3" to-layer="55" to-port="0" />
		<edge from-layer="54" from-port="0" to-layer="55" to-port="1" />
		<edge from-layer="55" from-port="2" to-layer="60" to-port="1" />
		<edge from-layer="56" from-port="0" to-layer="57" to-port="2" />
		<edge from-layer="57" from-port="3" to-layer="59" to-port="0" />
		<edge from-layer="58" from-port="0" to-layer="59" to-port="1" />
		<edge from-layer="59" from-port="2" to-layer="60" to-port="2" />
		<edge from-layer="60" from-port="3" to-layer="61" to-port="0" />
		<edge from-layer="61" from-port="2" to-layer="63" to-port="0" />
		<edge from-layer="62" from-port="0" to-layer="63" to-port="1" />
		<edge from-layer="63" from-port="2" to-layer="65" to-port="1" />
		<edge from-layer="63" from-port="2" to-layer="79" to-port="1" />
		<edge from-layer="63" from-port="2" to-layer="75" to-port="1" />
		<edge from-layer="63" from-port="2" to-layer="70" to-port="1" />
		<edge from-layer="64" from-port="0" to-layer="65" to-port="2" />
		<edge from-layer="65" from-port="3" to-layer="67" to-port="0" />
		<edge from-layer="66" from-port="0" to-layer="67" to-port="1" />
		<edge from-layer="67" from-port="2" to-layer="68" to-port="1" />
		<edge from-layer="68" from-port="2" to-layer="73" to-port="0" />
		<edge from-layer="69" from-port="0" to-layer="70" to-port="2" />
		<edge from-layer="70" from-port="3" to-layer="72" to-port="0" />
		<edge from-layer="71" from-port="0" to-layer="72" to-port="1" />
		<edge from-layer="72" from-port="2" to-layer="73" to-port="1" />
		<edge from-layer="73" from-port="2" to-layer="82" to-port="0" />
		<edge from-layer="74" from-port="0" to-layer="75" to-port="2" />
		<edge from-layer="75" from-port="3" to-layer="77" to-port="0" />
		<edge from-layer="76" from-port="0" to-layer="77" to-port="1" />
		<edge from-layer="77" from-port="2" to-layer="82" to-port="1" />
		<edge from-layer="78" from-port="0" to-layer="79" to-port="2" />
		<edge from-layer="79" from-port="3" to-layer="81" to-port="0" />
		<edge from-layer="80" from-port="0" to-layer="81" to-port="1" />
		<edge from-layer="81" from-port="2" to-layer="82" to-port="2" />
		<edge from-layer="82" from-port="3" to-layer="83" to-port="0" />
		<edge from-layer="83" from-port="2" to-layer="85" to-port="0" />
		<edge from-layer="84" from-port="0" to-layer="85" to-port="1" />
		<edge from-layer="85" from-port="2" to-layer="92" to-port="1" />
		<edge from-layer="85" from-port="2" to-layer="87" to-port="1" />
		<edge from-layer="85" from-port="2" to-layer="97" to-port="1" />
		<edge from-layer="85" from-port="2" to-layer="101" to-port="1" />
		<edge from-layer="86" from-port="0" to-layer="87" to-port="2" />
		<edge from-layer="87" from-port="3" to-layer="89" to-port="0" />
		<edge from-layer="88" from-port="0" to-layer="89" to-port="1" />
		<edge from-layer="89" from-port="2" to-layer="90" to-port="1" />
		<edge from-layer="90" from-port="2" to-layer="95" to-port="0" />
		<edge from-layer="91" from-port="0" to-layer="92" to-port="2" />
		<edge from-layer="92" from-port="3" to-layer="94" to-port="0" />
		<edge from-layer="93" from-port="0" to-layer="94" to-port="1" />
		<edge from-layer="94" from-port="2" to-layer="95" to-port="1" />
		<edge from-layer="95" from-port="2" to-layer="104" to-port="0" />
		<edge from-layer="96" from-port="0" to-layer="97" to-port="2" />
		<edge from-layer="97" from-port="3" to-layer="99" to-port="0" />
		<edge from-layer="98" from-port="0" to-layer="99" to-port="1" />
		<edge from-layer="99" from-port="2" to-layer="104" to-port="1" />
		<edge from-layer="100" from-port="0" to-layer="101" to-port="2" />
		<edge from-layer="101" from-port="3" to-layer="103" to-port="0" />
		<edge from-layer="102" from-port="0" to-layer="103" to-port="1" />
		<edge from-layer="103" from-port="2" to-layer="104" to-port="2" />
		<edge from-layer="104" from-port="3" to-layer="105" to-port="0" />
		<edge from-layer="105" from-port="2" to-layer="107" to-port="0" />
		<edge from-layer="106" from-port="0" to-layer="107" to-port="1" />
		<edge from-layer="107" from-port="2" to-layer="109" to-port="1" />
		<edge from-layer="107" from-port="2" to-layer="123" to-port="1" />
		<edge from-layer="107" from-port="2" to-layer="119" to-port="1" />
		<edge from-layer="107" from-port="2" to-layer="114" to-port="1" />
		<edge from-layer="108" from-port="0" to-layer="109" to-port="2" />
		<edge from-layer="109" from-port="3" to-layer="111" to-port="0" />
		<edge from-layer="110" from-port="0" to-layer="111" to-port="1" />
		<edge from-layer="111" from-port="2" to-layer="112" to-port="1" />
		<edge from-layer="112" from-port="2" to-layer="117" to-port="0" />
		<edge from-layer="113" from-port="0" to-layer="114" to-port="2" />
		<edge from-layer="114" from-port="3" to-layer="116" to-port="0" />
		<edge from-layer="115" from-port="0" to-layer="116" to-port="1" />
		<edge from-layer="116" from-port="2" to-layer="117" to-port="1" />
		<edge from-layer="117" from-port="2" to-layer="126" to-port="0" />
		<edge from-layer="118" from-port="0" to-layer="119" to-port="2" />
		<edge from-layer="119" from-port="3" to-layer="121" to-port="0" />
		<edge from-layer="120" from-port="0" to-layer="121" to-port="1" />
		<edge from-layer="121" from-port="2" to-layer="126" to-port="1" />
		<edge from-layer="122" from-port="0" to-layer="123" to-port="2" />
		<edge from-layer="123" from-port="3" to-layer="125" to-port="0" />
		<edge from-layer="124" from-port="0" to-layer="125" to-port="1" />
		<edge from-layer="125" from-port="2" to-layer="126" to-port="2" />
		<edge from-layer="126" from-port="3" to-layer="127" to-port="0" />
		<edge from-layer="127" from-port="2" to-layer="129" to-port="0" />
		<edge from-layer="128" from-port="0" to-layer="129" to-port="1" />
		<edge from-layer="129" from-port="2" to-layer="131" to-port="1" />
		<edge from-layer="129" from-port="2" to-layer="136" to-port="1" />
		<edge from-layer="129" from-port="2" to-layer="141" to-port="1" />
		<edge from-layer="129" from-port="2" to-layer="145" to-port="1" />
		<edge from-layer="130" from-port="0" to-layer="131" to-port="2" />
		<edge from-layer="131" from-port="3" to-layer="133" to-port="0" />
		<edge from-layer="132" from-port="0" to-layer="133" to-port="1" />
		<edge from-layer="133" from-port="2" to-layer="134" to-port="1" />
		<edge from-layer="134" from-port="2" to-layer="139" to-port="0" />
		<edge from-layer="135" from-port="0" to-layer="136" to-port="2" />
		<edge from-layer="136" from-port="3" to-layer="138" to-port="0" />
		<edge from-layer="137" from-port="0" to-layer="138" to-port="1" />
		<edge from-layer="138" from-port="2" to-layer="139" to-port="1" />
		<edge from-layer="139" from-port="2" to-layer="148" to-port="0" />
		<edge from-layer="140" from-port="0" to-layer="141" to-port="2" />
		<edge from-layer="141" from-port="3" to-layer="143" to-port="0" />
		<edge from-layer="142" from-port="0" to-layer="143" to-port="1" />
		<edge from-layer="143" from-port="2" to-layer="148" to-port="1" />
		<edge from-layer="144" from-port="0" to-layer="145" to-port="2" />
		<edge from-layer="145" from-port="3" to-layer="147" to-port="0" />
		<edge from-layer="146" from-port="0" to-layer="147" to-port="1" />
		<edge from-layer="147" from-port="2" to-layer="148" to-port="2" />
		<edge from-layer="148" from-port="3" to-layer="149" to-port="0" />
		<edge from-layer="149" from-port="2" to-layer="151" to-port="0" />
		<edge from-layer="150" from-port="0" to-layer="151" to-port="1" />
		<edge from-layer="151" from-port="2" to-layer="158" to-port="1" />
		<edge from-layer="151" from-port="2" to-layer="153" to-port="1" />
		<edge from-layer="151" from-port="2" to-layer="163" to-port="1" />
		<edge from-layer="151" from-port="2" to-layer="167" to-port="1" />
		<edge from-layer="152" from-port="0" to-layer="153" to-port="2" />
		<edge from-layer="153" from-port="3" to-layer="155" to-port="0" />
		<edge from-layer="154" from-port="0" to-layer="155" to-port="1" />
		<edge from-layer="155" from-port="2" to-layer="156" to-port="1" />
		<edge from-layer="156" from-port="2" to-layer="161" to-port="0" />
		<edge from-layer="157" from-port="0" to-layer="158" to-port="2" />
		<edge from-layer="158" from-port="3" to-layer="160" to-port="0" />
		<edge from-layer="159" from-port="0" to-layer="160" to-port="1" />
		<edge from-layer="160" from-port="2" to-layer="161" to-port="1" />
		<edge from-layer="161" from-port="2" to-layer="170" to-port="0" />
		<edge from-layer="162" from-port="0" to-layer="163" to-port="2" />
		<edge from-layer="163" from-port="3" to-layer="165" to-port="0" />
		<edge from-layer="164" from-port="0" to-layer="165" to-port="1" />
		<edge from-layer="165" from-port="2" to-layer="170" to-port="1" />
		<edge from-layer="166" from-port="0" to-layer="167" to-port="2" />
		<edge from-layer="167" from-port="3" to-layer="169" to-port="0" />
		<edge from-layer="168" from-port="0" to-layer="169" to-port="1" />
		<edge from-layer="169" from-port="2" to-layer="170" to-port="2" />
		<edge from-layer="170" from-port="3" to-layer="171" to-port="0" />
		<edge from-layer="171" from-port="2" to-layer="173" to-port="0" />
		<edge from-layer="172" from-port="0" to-layer="173" to-port="1" />
		<edge from-layer="173" from-port="2" to-layer="185" to-port="1" />
		<edge from-layer="173" from-port="2" to-layer="189" to-port="1" />
		<edge from-layer="173" from-port="2" to-layer="175" to-port="1" />
		<edge from-layer="173" from-port="2" to-layer="180" to-port="1" />
		<edge from-layer="174" from-port="0" to-layer="175" to-port="2" />
		<edge from-layer="175" from-port="3" to-layer="177" to-port="0" />
		<edge from-layer="176" from-port="0" to-layer="177" to-port="1" />
		<edge from-layer="177" from-port="2" to-layer="178" to-port="1" />
		<edge from-layer="178" from-port="2" to-layer="183" to-port="0" />
		<edge from-layer="179" from-port="0" to-layer="180" to-port="2" />
		<edge from-layer="180" from-port="3" to-layer="182" to-port="0" />
		<edge from-layer="181" from-port="0" to-layer="182" to-port="1" />
		<edge from-layer="182" from-port="2" to-layer="183" to-port="1" />
		<edge from-layer="183" from-port="2" to-layer="192" to-port="0" />
		<edge from-layer="184" from-port="0" to-layer="185" to-port="2" />
		<edge from-layer="185" from-port="3" to-layer="187" to-port="0" />
		<edge from-layer="186" from-port="0" to-layer="187" to-port="1" />
		<edge from-layer="187" from-port="2" to-layer="192" to-port="1" />
		<edge from-layer="188" from-port="0" to-layer="189" to-port="2" />
		<edge from-layer="189" from-port="3" to-layer="191" to-port="0" />
		<edge from-layer="190" from-port="0" to-layer="191" to-port="1" />
		<edge from-layer="191" from-port="2" to-layer="192" to-port="2" />
		<edge from-layer="192" from-port="3" to-layer="193" to-port="0" />
		<edge from-layer="193" from-port="2" to-layer="195" to-port="0" />
		<edge from-layer="194" from-port="0" to-layer="195" to-port="1" />
		<edge from-layer="195" from-port="2" to-layer="207" to-port="1" />
		<edge from-layer="195" from-port="2" to-layer="202" to-port="1" />
		<edge from-layer="195" from-port="2" to-layer="211" to-port="1" />
		<edge from-layer="195" from-port="2" to-layer="197" to-port="1" />
		<edge from-layer="196" from-port="0" to-layer="197" to-port="2" />
		<edge from-layer="197" from-port="3" to-layer="199" to-port="0" />
		<edge from-layer="198" from-port="0" to-layer="199" to-port="1" />
		<edge from-layer="199" from-port="2" to-layer="200" to-port="1" />
		<edge from-layer="200" from-port="2" to-layer="205" to-port="0" />
		<edge from-layer="201" from-port="0" to-layer="202" to-port="2" />
		<edge from-layer="202" from-port="3" to-layer="204" to-port="0" />
		<edge from-layer="203" from-port="0" to-layer="204" to-port="1" />
		<edge from-layer="204" from-port="2" to-layer="205" to-port="1" />
		<edge from-layer="205" from-port="2" to-layer="214" to-port="0" />
		<edge from-layer="206" from-port="0" to-layer="207" to-port="2" />
		<edge from-layer="207" from-port="3" to-layer="209" to-port="0" />
		<edge from-layer="208" from-port="0" to-layer="209" to-port="1" />
		<edge from-layer="209" from-port="2" to-layer="214" to-port="1" />
		<edge from-layer="210" from-port="0" to-layer="211" to-port="2" />
		<edge from-layer="211" from-port="3" to-layer="213" to-port="0" />
		<edge from-layer="212" from-port="0" to-layer="213" to-port="1" />
		<edge from-layer="213" from-port="2" to-layer="214" to-port="2" />
		<edge from-layer="214" from-port="3" to-layer="215" to-port="0" />
		<edge from-layer="215" from-port="2" to-layer="217" to-port="0" />
		<edge from-layer="216" from-port="0" to-layer="217" to-port="1" />
		<edge from-layer="217" from-port="2" to-layer="233" to-port="1" />
		<edge from-layer="217" from-port="2" to-layer="224" to-port="1" />
		<edge from-layer="217" from-port="2" to-layer="229" to-port="1" />
		<edge from-layer="217" from-port="2" to-layer="219" to-port="1" />
		<edge from-layer="218" from-port="0" to-layer="219" to-port="2" />
		<edge from-layer="219" from-port="3" to-layer="221" to-port="0" />
		<edge from-layer="220" from-port="0" to-layer="221" to-port="1" />
		<edge from-layer="221" from-port="2" to-layer="222" to-port="1" />
		<edge from-layer="222" from-port="2" to-layer="227" to-port="0" />
		<edge from-layer="223" from-port="0" to-layer="224" to-port="2" />
		<edge from-layer="224" from-port="3" to-layer="226" to-port="0" />
		<edge from-layer="225" from-port="0" to-layer="226" to-port="1" />
		<edge from-layer="226" from-port="2" to-layer="227" to-port="1" />
		<edge from-layer="227" from-port="2" to-layer="236" to-port="0" />
		<edge from-layer="228" from-port="0" to-layer="229" to-port="2" />
		<edge from-layer="229" from-port="3" to-layer="231" to-port="0" />
		<edge from-layer="230" from-port="0" to-layer="231" to-port="1" />
		<edge from-layer="231" from-port="2" to-layer="236" to-port="1" />
		<edge from-layer="232" from-port="0" to-layer="233" to-port="2" />
		<edge from-layer="233" from-port="3" to-layer="235" to-port="0" />
		<edge from-layer="234" from-port="0" to-layer="235" to-port="1" />
		<edge from-layer="235" from-port="2" to-layer="236" to-port="2" />
		<edge from-layer="236" from-port="3" to-layer="237" to-port="0" />
		<edge from-layer="237" from-port="2" to-layer="239" to-port="0" />
		<edge from-layer="238" from-port="0" to-layer="239" to-port="1" />
		<edge from-layer="239" from-port="2" to-layer="241" to-port="1" />
		<edge from-layer="240" from-port="0" to-layer="241" to-port="2" />
		<edge from-layer="241" from-port="3" to-layer="243" to-port="0" />
		<edge from-layer="242" from-port="0" to-layer="243" to-port="1" />
		<edge from-layer="243" from-port="2" to-layer="245" to-port="0" />
		<edge from-layer="243" from-port="2" to-layer="249" to-port="0" />
		<edge from-layer="244" from-port="0" to-layer="245" to-port="1" />
		<edge from-layer="245" from-port="3" to-layer="247" to-port="0" />
		<edge from-layer="246" from-port="0" to-layer="247" to-port="1" />
		<edge from-layer="247" from-port="2" to-layer="248" to-port="0" />
	</edges>
	<rt_info>
		<Runtime_version value="2026.0.0-20965-c6d6a13a886-releases/2026/0" />
		<conversion_parameters>
			<input_model value="DIR/hb_rf_model.onnx" />
			<is_python_object value="False" />
		</conversion_parameters>
	</rt_info>
</net>
